android/app/src/main/assets/quickdraw-acc93.tflite (tflite, 442808 bytes, 10 tensors)

conv2d/Conv2D_bias f4 [16]
-0.076566234 -0.03960205 -0.3778424 -0.3802094 -0.054795258 -0.4056405 -0.01748941 -0.0006497697
0.04466875 -0.46554255 -0.08051196 -0.04819331 -0.36897013 -0.24706213 -0.09524507 0.021950336
00000000: c2ce 9cbd c235 22bd 8f74 c1be ceaa c2be
00000010: fe70 60bd 1db0 cfbe f345 8fbc 4e55 2aba
00000020: 94f6 363d 985b eebe 74e3 a4bd 5966 45bd
00000030: a7e9 bcbe dbfd 7cbe d90f c3bd 31d1 b33c

conv2d/kernel f4 [1, 3, 3, 16]
0.16649948 0.13001847 0.06803314 -0.18972425 -0.2571017 0.18406455 0.14519115 0.17442559
-0.2625327 -0.0701437 0.09473841 0.07619453 0.14569268 0.308761 -0.0052198577 0.017175607
0.13528551 0.12944728 0.14968883 -0.0351196 0.2558281 0.18726897 0.41925162 -0.19688353
0.08786456 -0.1313239 -0.41993862 0.21835735 -0.13928774 0.0030571963 0.2993942 0.37644532
-0.4103771 0.081989646 0.13595429 -0.14709297 0.004266555 0.017946875 0.3099991 -0.26589277
0.19787647 0.24591948 0.2572259 -0.072616056 0.035603654 -0.38773856 -0.08906214 -0.32179925
-0.17425115 -0.35339734 0.16594307 0.21539737 -0.14676309 0.21631795 -0.24930726 -0.4966143
-0.21408182 -0.084552236 -0.05863996 -0.6463192 0.27788454 0.0973997 -0.25331593 0.33092403
-0.0055004377 -0.3939638 0.10390307 0.119776405 0.6025999 0.041268762 -0.44008836 -0.13108733
-0.13355875 0.42166817 -0.16683519 0.061509658 0.32479683 0.35202515 0.37637126 -0.29540673
0.2743798 -0.20392795 0.14312017 5.519745e-05 -0.3976092 0.121644676 -0.13672617 0.26653865
0.2514437 0.21294177 0.26358822 0.32412237 -0.22386648 -0.22820663 0.058103453 -0.22985385
-0.29510882 0.2204116 0.13361531 0.150098 0.14193366 0.10558786 0.10336974 0.28505534
-0.09989842 0.24414444 0.10420103 0.48649672 -0.24651259 0.18449937 -0.3976883 -0.14744829
-0.047815073 0.30016816 0.11008849 0.22437938 0.11772862 0.16874097 0.005784308 0.3355524
-0.11893077 0.12549278 -0.07743257 -0.3411118 0.27409866 -0.07116189 0.21920574 -0.31019947
0.35101932 0.21848874 0.09104473 0.2082226 -0.26803008 -0.56365645 -0.13205929 0.0362524
0.2024625 -0.062379666 0.14257254 -0.1777446 0.12776807 0.1339511 0.009852375 0.32781896
00000000: d77e 2a3e 9023 053e f554 8b3d 1347 42be
00000010: d6a2 83be 6b7b 3c3e fdac 143e 9f9c 323e
00000020: b06a 86be 80a7 8fbd 3606 c23d e10b 9c3d
00000030: 7630 153e ec15 9e3e 570b abbb dcb3 8c3c
00000040: 4988 0a3e d48d 043e 0748 193e 92d9 0fbd
00000050: e7fb 823e 70c3 3f3e 26a8 d63e d69b 49be
00000060: 56f2 b33d c679 06be 3202 d7be 1299 5f3e
00000070: 72a1 0ebe 3e5b 483b 324a 993e 71bd c03e
00000080: f21c d2be 30ea a73d 9a37 0b3e 8a9f 16be
00000090: 75ce 8b3b 5305 933c 34b8 9e3e 1923 88be
000000a0: 21a0 4a3e 51d2 7b3e 1db3 833e bab7 94bd
000000b0: 23d5 113d ab85 c6be 3666 b6bd dfc2 a4be
000000c0: e56e 32be 7ff0 b4be fbec 293e 2191 5c3e
000000d0: 1049 16be 7482 5d3e 674a 7fbe 3b44 febe
000000e0: 4438 5bbe b929 adbd 7430 70bd 2d75 25bf
000000f0: e246 8e3e 7e79 c73d a0b2 81be e06e a93e
00000100: 043d b4bb a0b5 c9be 22cb d43d 554d f53d
00000110: fd43 1a3f 6f09 293d 4353 e1be c23b 06be
00000120: a0c3 08be e4e4 d73e d8d6 2abe 8df1 7b3d
00000130: c54b a63e a43c b43e bcb3 c03e 8d3f 97be
00000140: 827b 8c3e 7dd2 50be 188e 123e d083 6738
00000150: 6f93 cbbe d820 f93d f201 0cbe c177 883e
00000160: 3bbd 803e 680d 5a3e 09f5 863e 5ef3 a53e
00000170: 413d 65be 00af 69be e3fd 6d3d cf5e 6bbe
00000180: 8118 97be 94b3 613e 74d2 083e 4ab3 193e
00000190: 0f57 113e 733e d83d 84b3 d33d c6f2 913e
000001a0: 8b97 ccbd 0001 7a3e 5a67 d53d 1916 f93e
000001b0: cc6d 7cbe 67ed 3c3e cd9d cbbe affc 16be
000001c0: bdd9 43bd a4af 993e 1376 e13d b5c3 653e
000001d0: b41b f13d 6fca 2c3e 4b8a bd3b 86cd ab3e
000001e0: fa91 f3bd 2e81 003e f894 9ebd 35a6 aebe
000001f0: a956 8c3e 53bd 91bd 7877 603e 77d2 9ebe
00000200: ceb8 b33e 83bb 5f3e a975 ba3d 4e38 553e
00000210: 3d3b 89be ca4b 10bf 8d3a 07be 667d 143d
00000220: 5452 4f3e d281 7fbd 89fe 113e ae02 36be
00000230: a2d5 023e 7a2a 093e db6b 213c e3d7 a73e

conv2d_1/Conv2D_bias f4 [32]
-0.2563289 -0.49281284 -0.11190415 -0.36080742 0.07251055 -0.08322966 -0.18079568 0.015118565
-0.38297266 -0.033333838 -0.02142134 -0.11291257 -0.1794649 -0.0896736 -0.2739785 -0.44706932
-0.5769539 -0.081792094 -0.11935191 0.05246032 -0.18494812 -0.26941663 -0.33228517 0.008625754
-0.472382 -0.20150296 -0.052002665 0.14896679 -0.2270559 -0.10835152 -0.023367535 -0.023412023
00000000: 8b3d 83be f751 fcbe 012e e5bd c0bb b8be
00000010: 6980 943d 5074 aabd 8122 39be dcb3 773c
00000020: fe14 c4be 1089 08bd ce7b afbc b53e e7bd
00000030: a6c5 37be cba6 b7bd e946 8cbe 45e6 e4be
00000040: 40b3 13bf 9d82 a7bd c66e f4bd a2e0 563d
00000050: 0a63 3dbe faf0 89be 4821 aabe 0953 0d3c
00000060: 0edc f1be cb56 4ebe bf00 55bd c08a 183e
00000070: 5881 68be 67e7 ddbd 466d bfbc 92ca bfbc

conv2d_1/kernel f4 [32, 3, 3, 16]
-0.11001362 -0.013608614 -0.092813194 -0.0048035146 -0.034261793 -0.058561083 0.049693394 -0.066518925
0.1634919 -0.019894663 0.024436392 -0.06661474 -0.072391935 0.026818356 0.12761551 -0.10966715
-0.107687786 -0.16152707 -0.20899446 -0.10434362 0.069310695 -0.10394919 0.15244904 -0.047354657
-0.18366107 -0.33426434 -0.20383024 -0.023261525 0.029311508 0.116735086 -0.15067013 -0.0034055004
0.044657398 0.120429486 0.10845582 0.096279435 0.03239895 0.12851739 -0.09838043 0.12759338
0.123065 0.33405894 0.020395497 -0.06402871 0.15508291 -0.010390302 0.026186973 -0.10468954
0.017482126 -0.103552364 -0.08296399 0.11679841 -0.056437247 -0.07466995 0.28478694 -0.034343608
-0.18727276 -0.2808727 -0.32588485 0.27912688 0.13942549 -0.0076255505 0.055104226 -0.1962366
0.25039512 -0.031502154 -0.08389082 0.2328373 -0.1976214 -0.12623477 -0.037164506 0.028187832
0.047855876 0.22432077 0.0074238004 -0.04306574 0.117812224 -0.14414021 -0.059825175 0.21734628
0.1311729 -0.060542412 0.20685051 0.089171484 0.32078895 0.2937566 0.08101665 0.18701379
0.01461843 0.4636301 -0.16527444 -0.17413132 -0.16082226 0.05424968 -0.032797843 0.29692984
0.018248213 0.14035568 0.005046786 0.06230514 -0.44177654 -0.25062254 0.160083 0.011005839
-0.0053924476 -0.19568817 0.032833923 0.041763436 -0.0404131 0.05871132 0.03929397 -0.08814323
-0.1307149 -0.05982801 0.022265818 0.048412133 0.23328692 0.13791196 -0.22996122 0.22937237
0.048593733 0.38767272 0.054241125 -0.12682751 0.05830159 0.06390053 -0.06778279 -0.080008574
0.01479367 -0.21514747 -0.11280553 -0.018593118 -0.0945872 0.078919746 0.0741402 0.025189027
-0.04990211 -0.21613987 -0.27889875 -0.16853747 0.3041181 -0.0044433842 -0.076901875 0.23159511
0.2291548 -0.07944855 -0.10790684 0.011777339 0.25175896 0.059567604 -0.3951899 0.036503706
0.07083428 0.06893851 0.22883055 0.056244254 0.03969514 0.051783036 -0.044092488 0.31785738
0.18592994 -0.117488585 0.015477492 0.06353338 0.20597167 -0.052558094 -0.38772234 0.1399428
0.008631132 -0.04470404 0.1303424 -0.11823195 -0.23746492 -0.10127268 0.03822026 0.06649136
0.05472114 0.023917573 0.047994737 0.10188366 0.1220994 -0.24228922 -0.5516508 -0.1970479
0.073880985 -0.17825417 0.042464558 -0.16035849 0.074024506 0.09569167 0.085828744 -0.024067737
0.3054583 -0.16356125 0.28633708 0.21054214 -0.01874278 -0.24244155 -0.32877636 -0.16116115
-0.050721247 0.04329099 -0.023404652 0.24414344 0.30948895 0.30629346 0.13988598 0.1096173
0.20378624 -0.07283475 0.2052196 0.07728082 0.17965642 0.21194506 -0.45107633 0.21305527
-0.23211229 0.26212314 0.22737151 -0.30488804 0.10872883 0.14705138 -0.15482494 0.105772264
-0.026746538 0.047232017 -0.03981919 0.05943769 0.33908492 0.01987222 -0.47145304 0.17042035
-0.14395842 0.17295253 0.12821332 -0.14123565 -0.31686297 -0.1322326 -0.349645 0.39746445
-0.019518552 -0.07650352 0.04377583 0.13256858 -0.22523789 0.19829457 -0.12870991 -0.07926382
-0.019868579 0.0019844524 -0.120293684 0.18847518 0.167372 0.06004402 -0.014360041 -0.09504173
00000000: d24e e1bd aaf6 5ebc d814 bebd cd66 9dbb
00000010: 1856 0cbd bfdd 6fbd 4d8b 4b3d 133b 88bd
00000020: 6c6a 273e 22fa a2bc d42e c83c 4f6d 88bd
00000030: 3942 94bd 2bb2 db3c a4ad 023e 2c99 e0bd
00000040: 6a8b dcbd 5a67 25be a502 56be 1cb2 d5bd
00000050: c4f2 8d3d 50e3 d4bd 9a1b 1c3e f5f6 41bd
00000060: a611 3cbe b224 abbe e0b8 50be f48e bebc
00000070: b01e f03c ce12 ef3d 4549 1abe d12e 5fbb
00000080: adea 363d bca3 f63d 161e de3d 272e c53d
00000090: c3b4 043d 109a 033e ae7b c9bd d7a7 023e
000000a0: 8109 fc3d c609 ab3e 7514 a73c 7c21 83bd
000000b0: 0ece 1e3e 163c 2abc 1086 d63c 7867 d6bd
000000c0: ad36 8f3c 4313 d4bd 06e9 a9bd 0134 ef3d
000000d0: be2a 67bd 8fec 98bd 98cf 913e e2ab 0cbd
000000e0: 6ec4 3fbe 8cce 8fbe 61da a6be b8e9 8e3e
000000f0: 8ec5 0e3e c1df f9bb f8b4 613d 3ff2 48be
00000100: ca33 803e 6708 01bd f3ce abbd e76c 6e3e
00000110: 445d 4abe b043 01be cf39 18bd 2bea e63c
00000120: 8604 443d 58b4 653e 5a43 f33b b465 30bd
00000130: 8947 f13d 7e99 13be 3e0b 75bd 0690 5e3e
00000140: 3052 063e 52fb 77bd 9fd0 533e 8a9f b63d
00000150: 733e a43e 4467 963e 0fec a53d 8b80 3f3e
00000160: 2482 6f3c ed60 ed3e b43d 29be 7b4f 32be
00000170: 97ae 24be ea34 5e3d 0857 06bd 3007 983e
00000180: 477d 953c 66b9 0f3e 825f a53b ad33 7f3d
00000190: 8930 e2be 9951 80be ccec 233e d651 343c
000001a0: 21b3 b0bb 7b62 48be dd7c 063d 2310 2b3d
000001b0: 3588 25bd 487b 703d b7f2 203d 7084 b4bd
000001c0: 20da 05be 370e 75bd ce66 b63c cd4b 463d
000001d0: c4e2 6e3e cb38 0d3e f47a 6bbe 97e0 6a3e
000001e0: 390a 473d 0a7d c63e f12b 5e3d 12df 01be
000001f0: a6cd 6e3d 48de 823d b4d1 8abd 89db a3bd
00000200: 2661 723c 9e4f 5cbe 9606 e7bd 9850 98bc
00000210: efb6 c1bd ada0 a13d d1d6 973d 3859 ce3c
00000220: 2866 4cbd c553 5dbe d1cb 8ebe 1695 2cbe
00000230: 5eb5 9b3e cf99 91bb bb7e 9dbd 4527 6d3e
00000240: 8ea7 6a3e ecb5 a2bd 43fe dcbd bdf5 403c
00000250: 8de6 803e 29fd 733d 5556 cabe e984 153d
00000260: 9011 913d a22f 8d3d 8e52 6a3e 6060 663d
00000270: 5f97 223d 731a 543d 539a 34bd 34be a23e
00000280: 6b64 3e3e db9d f0bd 4e95 7d3c ca1d 823d
00000290: 3dea 523e 2847 57bd 8b83 c6be 2a4d 0f3e
000002a0: 9769 0d3c 951b 37bd 7a78 053e 9823 f2bd
000002b0: 012a 73be 0d68 cfbd d98c 1c3d 9f2c 883d
000002c0: 4623 603d c9ee c33c 2196 443d 61a8 d03d
000002d0: 400f fa3d aa1a 78be fd38 0dbf edc6 49be
000002e0: ea4e 973d 4388 36be 51ef 2d3d 0435 24be
000002f0: 299a 973d fff9 c33d fbc6 af3d b429 c5bc
00000300: 0865 9c3e 9a7c 27be c69a 923e 5c98 573e
00000310: 758a 99bc 9942 78be 6055 a8be 6e07 25be
00000320: 15c1 4fbd e551 313d 1dbb bfbc bd00 7a3e
00000330: 5675 9e3e 7fd2 9c3e 453e 0f3e 097f e03d
00000340: 57ad 503e 632a 95bd 1625 523e 6845 9e3d
00000350: daf7 373e 2008 593e 7af3 e6be 292b 5a3e
00000360: d8ae 6dbe 0135 863e 14d4 683e 491a 9cbe
00000370: 39ad de3d a394 163e 6e8a 1ebe 219f d83d
00000380: 8e1b dbbc 5c76 413d 7219 23bd ef74 733d
00000390: 8a9c ad3e 11cb a23c 4b62 f1be ac82 2e3e
000003a0: d669 13be 781a 313e 5a4a 033e 14a0 10be
000003b0: dd3b a2be fc67 07be ab04 b3be 7680 cb3e
000003c0: 5fe5 9fbc e1ad 9cbd 494e 333d 0fc0 073e
000003d0: c3a4 66be bb0d 4b3e 88cc 03be 1255 a2bd
000003e0: 6ec3 a2bc 960d 023b 895c f6bd a3ff 403e
000003f0: 9163 2b3e b8f0 753d 6146 6bbc 3da5 c2bd

conv2d_2/Conv2D_bias f4 [64]
-0.38366866 -0.25193378 -0.41477746 -0.2626499 -0.3923164 -0.46479782 -0.054928847 -0.04676766
-0.32341272 -0.14610237 -0.07249105 -0.041597508 -0.28790793 0.0272454 -0.19184294 -0.14683907
-0.2848297 -0.11630829 -0.023185546 -0.23250188 -0.22707273 -0.33899572 -0.016788026 0.045747016
0.068696246 -0.17374818 -0.28586465 -0.47599077 -0.05068839 -0.15847865 0.017986894 -0.061041646
0.082572706 0.0006933624 -0.35925394 -0.13455546 0.1037523 -0.53861225 -0.23175123 -0.4164184
-0.04264437 -0.4149732 -0.18118037 0.20258737 -0.31964272 -0.26610374 -0.13448453 -0.26890096
-0.28049806 -0.33763826 0.0035471686 -0.38528427 -0.03886274 -0.09247556 -0.45099282 0.034323055
-0.3028239 -0.07085701 -0.2465081 -0.17628029 -0.09196315 -0.3197804 0.017914794 -0.3155857
00000000: 3870 c4be 77fd 80be b65d d4be 0c7a 86be
00000010: b2dd c8be fbf9 edbe 12fd 60bd 728f 3fbd
00000020: 5a96 a5be dc9b 15be 3076 94bd 2662 2abd
00000030: ab68 93be bf31 df3c 7a72 44be fb5c 16be
00000040: 33d5 91be 0a33 eebd 9def bdbc f914 6ebe
00000050: c185 68be d990 adbe 0b87 89bc 3961 3b3d
00000060: 9eb0 8c3d 0beb 31be da5c 92be 10b5 f3be
00000070: a19e 4fbd 3a48 22be 4059 933c ce06 7abd
00000080: e11b a93d c3c2 353a 22f0 b7be e8c8 09be
00000090: 167c d43d 7ee2 09bf 3250 6dbe cb34 d5be
000000a0: ddab 2ebd 5e77 d4be 5987 39be 1073 4f3e
000000b0: 36a8 a3be c03e 88be 50b6 09be 63ad 89be
000000c0: 719d 8fbe ecde acbe 9d77 683b fb43 c5be
000000d0: 892e 1fbd d463 bdbd 88e8 e6be 5596 0c3d
000000e0: bc0b 9bbe 7b1d 91bd 9f6c 7cbe d282 34be
000000f0: 2d57 bcbd 42ba a3be 0cc2 923c 7394 a1be

conv2d_2/kernel f4 [64, 3, 3, 32]
-0.05266881 0.00641455 0.13751064 -0.077716626 0.028639028 0.12370052 -0.20431164 -0.18834838
0.04412723 0.064567864 0.07443075 -0.060468253 -0.043667346 0.08918225 -0.16707245 0.07308857
0.16558725 0.18724759 0.14329694 -0.14080359 -0.084554 -0.16496241 -0.046377826 0.12538773
-0.108604595 -0.030352352 -0.03685991 0.0013554199 -0.2171069 0.077463314 0.023802096 0.032191966
0.13608521 0.10913534 -0.13976929 0.036992393 -0.05227472 0.21364836 0.055865083 -0.058415525
0.2300701 -0.10715243 -0.01215276 0.024870072 -0.0005889156 0.16749758 0.17966175 -0.20708188
-0.15275711 0.09535304 0.021628909 -0.01883151 -0.16792893 0.009619265 -0.08257285 -0.072174385
-0.0076705446 -0.09872653 -0.20937864 0.090092875 -0.32867482 -0.05765073 0.04542267 0.061947495
-0.016657272 -0.12314291 -0.1814323 -0.08939333 -0.054988123 -0.22342344 0.092423394 0.023994666
0.13340175 -0.04736124 -0.18310831 0.0224403 0.2782195 -0.16215236 0.1649867 0.07558517
0.027379343 -0.08637186 0.08978241 0.24550769 -0.17921214 0.26128638 -0.14355817 -0.22567739
-0.09176452 0.1562608 0.13586263 0.23761317 0.07016488 0.1239955 -0.05445114 -0.16478606
0.01619432 0.0053294157 0.01602005 0.12357335 -0.19944254 0.2105593 0.049724277 -0.16793713
-0.22654483 -0.27630162 0.11260792 0.25079387 0.077947766 0.04329121 -0.08638198 0.0004457576
-0.090202756 -0.037563846 0.01777547 -0.22914724 0.1699446 0.09017963 -0.012873463 -0.06721878
0.10259731 -0.08848056 0.1790224 -0.24385536 0.014122156 -0.050837714 -0.048630323 0.14248602
-0.13738644 -0.13953722 -0.050487068 -0.050141305 -0.17689197 0.09636133 -0.12537065 0.04571513
-0.17163272 -0.19697343 0.08627179 0.12199831 0.22528817 -0.14196864 -0.16291136 0.050318692
-0.071510695 -0.107600525 -0.051381372 0.26797208 0.09612514 0.050797157 0.057480935 -0.04396208
-0.08579623 0.17750786 -0.1988929 -0.24792266 0.0870587 0.15659226 -0.29331002 -0.24867791
-0.09174109 -0.2578462 0.014834591 -0.020519707 -0.10642124 0.026255755 0.08283409 -0.0226841
0.07436975 -0.08010099 0.12216171 -0.104482785 -0.04796234 -0.1508779 0.15391594 0.103087835
-0.050695695 -0.10797984 0.025102796 0.05370069 -0.034201205 -0.028013626 0.03802109 -0.1365926
-0.06844394 0.18954457 -0.040046256 0.06696427 0.1515591 0.0025674254 -0.38802287 -0.113775834
-0.04595194 -0.014010334 -0.15507469 0.04140907 -0.12548451 0.13847663 0.07625297 -0.067689896
-0.14910264 -0.1324988 -0.14376484 0.27111292 -0.059729777 -0.033260427 -0.19489183 0.12540866
0.05548084 0.09514208 0.1957465 0.028447198 -0.18226333 0.0760039 0.041497562 0.12129201
0.0561406 0.10037693 0.052942947 0.11835485 0.0294759 -0.026903812 0.02495813 -0.09602178
0.07815067 -0.18336494 -0.11165304 0.118786044 0.090795726 0.19908924 -0.057919294 -0.05874068
-0.09849808 -0.019655103 0.14545473 -0.01090319 0.037281662 0.19185396 -0.33727273 0.1679012
0.055256613 0.25259843 0.2337389 -0.18072118 -0.041744858 0.0017717563 -0.112633556 0.08753428
-0.10200032 0.28180507 0.08696385 0.0458636 -0.07265651 -0.10952611 -0.34107068 0.009276888
00000000: 40bb 57bd 2531 d23b 97cf 0c3e e529 9fbd
00000010: 659c ea3c b356 fd3d 1237 51be 66de 40be
00000020: c1be 343d 283c 843d 266f 983d 8fad 77bd
00000030: 88dc 32bd 2fa5 b63d 0a15 2bbe 76af 953d
00000040: b48f 293e d5bd 3f3e 6fbc 123e d12e 10be
00000050: a62a adbd e8eb 28be adf6 3dbd a465 003e
00000060: 166c debd 7fa5 f8bc 6bfa 16bd 58a8 b13a
00000070: 4551 5ebe 16a5 9e3d 9dfc c23c b9db 033d
00000080: ec59 0b3e 5982 df3d ae1f 0fbe 5685 173d
00000090: 041e 56bd a3c6 5a3e c9d2 643d 1e45 6fbd
000000a0: 7f97 6b3e bc72 dbbd 5f1c 47bc 52bc cb3c
000000b0: 7561 1aba 7c84 2b3e 40f9 373e 460d 54be
000000c0: 5c6c 1cbe 7448 c33d 1c2f b13c 8a44 9abc
000000d0: 90f5 2bbe 1f9a 1d3c f41b a9bd 2ad0 93bd
000000e0: 3159 fbbb 2331 cabd 5b67 56be 9d82 b83d
000000f0: 1148 a8be 2c23 6cbd 1f0d 3a3d a8bc 7d3d
00000100: d574 88bc 5a32 fcbd 64c9 39be da13 b7bd
00000110: 3a3b 61bd 1dc9 64be 7a48 bd3d 7690 c43c
00000120: 789a 083e dcfd 41bd bf80 3bbe b8d4 b73c
00000130: c972 8e3e 450b 26be 46f2 283e 66cc 9a3d
00000140: a54a e03c bbe3 b0bd d7df b73d 5e66 7b3e
00000150: 6383 37be 54c7 853e ea00 13be f917 67be
00000160: 09ef bbbd d502 203e 931f 0b3e de50 733e
00000170: 9bb2 8f3d 5af1 fd3d 2908 5fbd adbd 28be
00000180: f3a9 843c 61a2 ae3b 7b3c 833c 0614 fd3d
00000190: aa3a 4cbe db9c 573e afab 4b3d b6f7 2bbe
000001a0: 5efb 67be 6877 8dbe fb9e e63d 0e68 803e
000001b0: 14a3 9f3d 2052 313d 09e9 b0bd 93b4 e939
000001c0: 39bc b8bd 8cdc 19bd dd9d 913c 93a5 6abe
000001d0: f505 2e3e 19b0 b83d 38eb 52bc 00aa 89bd
000001e0: 8a1e d23d 4c35 b5bd a651 373e 38b5 79be
000001f0: 9e60 673c 353b 50bd 9730 47bd dbe7 113e
00000200: 08af 0cbe d8e2 0ebe 87cb 4ebd f860 4dbd
00000210: 2b23 35be 1759 c53d 2a61 00be ca3f 3b3d
00000220: 7dc0 2fbe 67b3 49be 44af b03d 40da f93d
00000230: f1b1 663e 3a60 11be 3cd2 26be f91a 4e3d
00000240: 3374 92bd aa5d dcbd 4675 52bd a333 893e
00000250: 42dd c43d ae10 503d 2171 6b3d 9511 34bd
00000260: efb5 afbd 9fc4 353e 95aa 4bbe 70df 7dbe
00000270: d54b b23d b959 203e bb2c 96be 6ca5 7ebe
00000280: c1e2 bbbd 6b04 84be c90c 733c f218 a8bc
00000290: 61f3 d9bd 4f16 d73c eba4 a93d 01d4 b9bc
000002a0: 2b4f 983d fd0b a4bd eb2f fa3d 12fb d5bd
000002b0: 2974 44bd bc7f 1abe 249c 1d3e b71f d33d
000002c0: 4aa6 4fbd 8924 ddbd 61a4 cd3c 41f5 5b3d
000002d0: 9016 0cbd d57c e5bc 01bc 1b3d eede 0bbe
000002e0: 562c 8cbd f917 423e 8b07 24bd 9024 893d
000002f0: 4f32 1b3e 4042 283b efaa c6be 4e03 e9bd
00000300: 1a38 3cbd 9a8b 65bc e6cb 1ebe 8f9c 293d
00000310: 037f 00be d1cc 0d3e 842a 9c3d 00a1 8abd
00000320: 5dae 18be c4ad 07be 1737 13be 50cf 8a3e
00000330: 36a7 74bd 163c 08bd b991 47be 216b 003e
00000340: e13f 633d dad9 c23d c571 483e 190a e93c
00000350: 3da3 3abe efa7 9b3d 59f9 293d f267 f83d
00000360: b0f3 653d 6b92 cd3d b4da 583d 0764 f23d
00000370: 7177 f13c 6265 dcbc fe74 cc3c 11a7 c4bd
00000380: 750d a03d 05c4 3bbe 59aa e4bd 1946 f33d
00000390: 1cf3 b93d 0dde 4b3e c83c 6dbd 119a 70bd
000003a0: 5db9 c9bd bd03 a1bc 16f2 143e 4ba3 32bc
000003b0: a8b4 183d 5d75 443e 03af acbe 4bee 2b3e
000003c0: c254 623d 9554 813e 4059 6f3e f90e 39be
000003d0: a8fc 2abd 473a e83a 6cac e6bd 2c45 b33d
000003e0: 8be5 d0bd c148 903e 1a1a b23d 78db 3b3d
000003f0: f0cc 94bd 3a4f e0bd d1a0 aebe 17fe 173c

dense/MatMul_bias f4 [128]
-0.012450836 -0.04509557 0.25008142 -0.030919392 0.0013029482 -0.020465741 -0.035533383 -0.40033707
-0.07758125 -0.0028315992 0.049369693 -0.037663706 -0.015564049 0.1493213 -0.021101212 -0.03467537
0.041869543 0.08253493 0.11880175 -0.19346738 0.11964103 -0.09990851 -0.015038624 -0.224536
-0.044514775 -0.014010193 -0.11759075 0.045180563 0.0046379925 -0.003932956 -0.15990803 -0.101529375
0.022159388 -0.01785098 0.07809718 -0.011564442 0.15663089 -0.07988526 -0.23544826 -0.0069819153
0.027320601 0.049480498 0.053240772 -0.010737795 -0.0025775977 -0.04413574 -0.042112812 -0.010287173
-0.044500574 -0.017325252 0.3535577 -0.015580648 0.24466246 -0.046149965 0.26193556 0.06178674
-0.008803331 0.044137843 0.048988927 0.20530364 0.06636715 -0.14758568 -0.03538854 -0.056291446
0.14647648 -0.022593632 0.08130139 -0.010543081 0.14197774 -0.012353009 0.046496857 -0.027095882
0.1595486 -0.24820732 -0.18181676 0.2464834 -0.13702776 0.0057153604 -0.16341817 -0.047225997
0.06378475 0.23234974 -0.095966496 -0.013881993 0.01753103 -0.13645881 -0.011020857 -0.10295132
0.031563018 -0.005183574 0.16462788 0.2188583 -0.11100564 -0.045806244 0.089422435 0.081688814
-0.038977653 0.10663287 -0.06766836 -0.04342224 -0.10886749 -0.029309053 -0.012159333 -0.19970866
-0.121677294 -0.025731731 0.10602121 0.05366593 -0.093863055 -0.012378381 0.066053815 0.107470706
0.07391725 0.120711915 -0.044196952 -0.10284176 -0.014433839 -0.014339804 -0.02700442 -0.062681526
0.101089954 -0.107875325 0.20956427 -0.0073509687 -0.01286111 -0.008342281 -0.009729369 -0.013024754
00000000: 97fe 4bbc 22b6 38bd ac0a 803e aa4a fdbc
00000010: b0c7 aa3a c5a7 a7bc 748b 11bd fbf8 ccbe
00000020: ebe2 9ebd 5a92 39bb e037 4a3d 4245 1abd
00000030: 5a00 7fbc afe7 183e 73dc acbc c307 0ebd
00000040: 667f 2b3d 1308 a93d 554e f33d 501c 46be
00000050: 5b06 f53d d59c ccbd 9064 76bc c4ec 65be
00000060: 2055 36bd 028b 65bc 6bd3 f0bd 410f 393d
00000070: 4dfa 973b 07e0 80bb eebe 23be a2ee cfbd
00000080: 9b87 b53c 383c 92bc 6af1 9f3d c978 3dbc
00000090: d963 203e e29a a3bd 5919 71be 8dc8 e4bb
000000a0: 74cf df3c 10ac 4a3d ff12 5a3d 94ed 2fbc
000000b0: eaec 28bb adc7 34bd 7c7e 2cbd 888b 28bc
000000c0: 3c46 36bd b0ed 8dbc 8405 b53e f945 7fbc
000000d0: cc88 7a3e bf07 3dbd 6b1c 863e 1814 7d3d
000000e0: d93b 10bc e2c9 343d 9da8 483d 1e3b 523e
000000f0: 80eb 873d b320 17be 93f3 10bd dc91 66bd
00000100: eefd 153e 4816 b9bc 5881 a63d e3bc 2cbc
00000110: 9d62 113e 4664 4abc 7d73 3e3d 2ff8 ddbc
00000120: b560 233e 0f2a 7ebe 2c2e 3abe 2566 7c3e
00000130: 0151 0cbe eb47 bb3b 1857 27be 0c70 41bd
00000140: 94a1 823d 17ed 6d3e 158a c4bd 4c71 63bc
00000150: 3c9d 8f3c dcbb 0bbe d390 34bc 24d8 d2bd
00000160: 3948 013d f8da a9bb 3694 283e 641c 603e
00000170: ed56 e3bd 549f 3bbd 1c23 b73d 774c a73d
00000180: 08a7 1fbd 5662 da3d b695 8abd 85db 31bd
00000190: ebf5 debd 8a19 f0bc f037 47bc 6d80 4cbe
000001a0: f231 f9bd 5acb d2bc a621 d93d ced0 5b3d
000001b0: 463b c0bd b1ce 4abc 3947 873d 9a19 dc3d
000001c0: ed61 973d cf37 f73d dd07 35bd b39e d2bd
000001d0: e97b 6cbc 7ff1 6abc 6038 ddbc 2c5f 80bd
000001e0: 4008 cf3d bded dcbd 0498 563e 65e0 f0bb
000001f0: 68b7 52bc 10ae 08bc ee67 1fbc c765 55bc

dense/kernel/transpose f4 [128, 576]
0.037119042 -0.036030278 -0.11326079 0.00075004407 0.028179904 0.061815903 0.022100672 0.029539134
-0.088739835 -0.01960643 0.034699436 -0.07110944 0.03975111 -0.006520813 -0.058014084 -0.09854165
-0.12249544 0.01814913 -0.08772113 0.004351319 -0.051979396 -0.04628499 0.06872701 -0.1028481
0.037173104 0.024010245 -0.05866326 0.01722457 0.022796372 -0.07098289 -0.057760663 0.003946492
-0.0949885 0.08095647 -0.04235522 0.005907096 -0.09072674 -0.07828812 0.056916624 0.0055304947
-0.0006634635 -0.094720885 0.039400335 0.08406681 -0.0023656413 0.042757683 0.046733048 -0.04338962
0.058130853 0.07540533 0.012657869 -0.06787315 -0.02741623 -0.0021141893 -0.045303598 0.012424106
0.05529188 -0.06171451 -0.070030466 0.029161602 -0.01824291 -0.049783994 0.014394372 -0.086999364
-0.043089002 -0.011104825 0.028785128 0.038535025 0.0064892625 -0.055382643 -0.054084014 -0.010926424
-0.057993658 -0.036645215 -0.035449933 -0.07289799 -0.044818662 -0.08886155 -0.118505806 -0.115536205
0.04699797 -0.052104246 0.02266177 0.027102249 0.038414292 -0.07388174 0.041094072 -0.023723278
0.07357201 -0.022438072 -0.055136684 -0.09163313 -0.038292177 0.04155756 0.015703589 -0.052278668
-0.08443008 -0.0474843 -0.06923948 -0.047338966 -0.09904126 -0.035797693 -0.05476371 0.05777843
-0.052483533 -0.0491402 -0.06782523 0.0239722 -0.059358384 0.0097903535 -0.106561676 0.04298522
-0.055194717 0.06441088 0.07187489 -0.080919765 0.045966256 -0.009097146 0.011869222 -0.04165301
-0.063320965 -0.03530306 -0.04553095 -0.056221984 -0.077102534 0.025868392 -0.037330784 -0.08952205
-0.10187782 0.054582898 -0.068703316 0.014079709 -0.047001928 -0.11166557 0.01724486 -0.094508186
-0.085609 -0.11314292 -0.056594837 -0.07820676 0.027955147 -0.10292257 0.01722157 -0.008192042
-0.06925243 -0.031310096 -0.02620956 -0.067361094 0.074064516 -0.010589917 0.01468165 0.029539417
-0.04538687 0.0006638727 0.06228347 0.0015148937 -0.013889364 -0.10018272 0.038512174 -0.04396137
-0.10934999 -0.07052169 -0.028123539 -0.0090703815 0.07821674 0.053594172 -0.0036825144 -0.0678815
-0.042988524 -0.091787264 -0.0015806764 0.028286226 -0.0030461415 0.032105915 -0.12596779 -0.026347818
0.062417198 -0.012509447 -0.022794742 -0.04768686 0.07187684 0.057233583 0.045557685 0.038726363
-0.033599254 -0.0059419787 -0.016374828 -0.020523258 -0.10877747 0.0074231103 -0.06384744 0.048242282
-0.04848265 -0.0888451 0.008966975 -0.0585849 -0.059825514 -0.017968321 0.05465025 -0.0020949643
-0.029857263 -0.06241851 0.010658361 0.089391336 0.038410246 0.036123183 0.03201433 -0.083881915
0.046221796 -0.060331464 -0.0020428877 -0.027087092 -0.0063261664 -0.044209495 0.05713607 0.03389988
0.010785543 0.03428696 0.04292195 -0.035787646 0.056234207 -0.019047672 -0.08956752 0.03775145
-0.11446179 -0.012282438 0.05973826 -0.09744503 -0.017276777 -0.03952336 0.0033466925 -0.020334676
0.027987853 0.030713646 -0.068752356 -0.07892329 -0.025326572 -0.110930875 -0.0776138 0.084204495
-0.024985285 -0.09802646 0.022388702 -0.07489915 0.021057023 -0.008131528 -0.091055654 -0.034087542
-0.07859713 -0.10587088 0.05958355 -0.05223779 0.060443535 -0.015280943 -0.0063017276 -0.0033640205
00000000: 230a 183d 7c94 13bd 46f5 e7bd 9b9e 443a
00000010: 8bd9 e63c ac32 7d3d 780c b53c 0efc f13c
00000020: 3bbd b5bd aa9d a0bc ff20 0e3d d3a1 91bd
00000030: 0fd2 223d 8bac d5bb 2da0 6dbd 34d0 c9bd
00000040: e4de fabd 7cad 943c 23a7 b3bd 8295 8e3b
00000050: 59e8 54bd 5495 3dbd bfc0 8c3d 06a2 d2bd
00000060: d342 183d 22b1 c43c e348 70bd 8b1a 8d3c
00000070: 75bf ba3c 7a5f 91bd 7296 6cbd 9351 813b
00000080: 5589 c2bd 81cc a53d ab7c 2dbd 5090 c13b
00000090: f1ce b9bd 8655 a0bd 6821 693d 2739 b53b
000000a0: 48ec 2dba 06fd c1bd 3f62 213d 382b ac3d
000000b0: e008 1bbb ae22 2f3d 276b 3f3d 50b9 31bd
000000c0: 9e1a 6e3d 1c6e 9a3d f362 4f3c 1401 8bbd
000000d0: 0098 e0bc 368e 0abb 4490 39bd 7a8e 4b3c
000000e0: bd79 623d 5bc8 7cbd 226c 8fbd 50e4 ee3c
000000f0: 2872 95bc 4dea 4bbd 5fd6 6b3c b92c b2bd
00000100: 187e 30bd 03f1 35bc cace eb3c e7d6 1d3d
00000110: e1a3 d43b e9d8 62bd 3387 5dbd be04 33bc
00000120: c28a 6dbd 4b19 16bd f333 11bd 8b4b 95bd
00000130: c693 37bd 0bfd b5bd 2cb3 f2bd 3f9e ecbd
00000140: f280 403d 436b 55bd 2da5 b93c 8905 de3c
00000150: 4e58 1d3d 4f4f 97bd 4252 283d 5257 c2bc
00000160: ecac 963d 0cd0 b7bc 01d7 61bd 27aa bbbd
00000170: 42d8 1cbd 4338 2a3d d0a4 803c 2822 56bd
00000180: aee9 acbd e67e 42bd 6ecd 8dbd 81e6 41bd
00000190: 25d6 cabd 9aa0 12bd e94f 60bd 13a9 6c3d
000001a0: f9f8 56bd 3c47 49bd f4e7 8abd 5961 c43c
000001b0: c721 73bd b867 203c 023d dabd 4511 303d
000001c0: db13 62bd dae9 833d 2433 933d 43b9 a5bd
000001d0: 1d47 3c3d 320c 15bc 2077 423c 599c 2abd
000001e0: 6cae 81bd f199 10bd a97e 3abd 0649 66bd
000001f0: efe7 9dbd f3e9 d33c 2ae8 18bd 5657 b7bd
00000200: 52a5 d0bd 5192 5f3d 53b4 8cbd 94ae 663c
00000210: 1885 40bd ebb0 e4bd 1845 8d3c 828d c1bd
00000220: c553 afbd 7ab7 e7bd fdcf 67bd de2a a0bd
00000230: 3102 e53c 12c9 d2bd 4014 8d3c ea37 06bc
00000240: 38d4 8dbd 043f 00bd 6eb5 d6bc 9df4 89bd
00000250: 23af 973d 5581 2dbc 4e8b 703c a6fc f13c
00000260: 95e7 39bd be07 2e3a f41c 7f3d 668f c63a
00000270: 3790 63bc 992c cdbd f1be 1d3d d610 34bd
00000280: e3f2 dfbd ad6d 90bd 5663 e6bc f09b 14bc
00000290: 1930 a03d 9085 5b3d 5756 71bb 7505 8bbd
000002a0: bc14 30bd f6fa bbbd b32e cfba 84b8 e73c
000002b0: c6a1 47bb 7e81 033d b3fd 00be 61d7 d7bc
000002c0: 2da9 7f3d 6cf4 4cbc 0abc babc 4c53 43bd
000002d0: 2a34 933d c36d 6a3d b29a 3a3d 899f 1e3d
000002e0: 5f9f 09bd eeb4 c2bb 8124 86bc 6420 a8bc
000002f0: b9c6 debd 903d f33b 72c2 82bd b399 453d
00000300: be95 46bd 6bf4 b5bd 38ea 123c b8f6 6fbd
00000310: 990b 75bd 4d32 93bc f1d8 5f3d ab4b 09bb
00000320: 3897 f4bc 8daa 7fbd 68a0 2e3c ce12 b73d
00000330: 1054 1d3d e7f5 133d 7521 033d 48ca abbd
00000340: 1153 3d3d 201e 77bd f8e1 05bb c0e5 ddbc
00000350: bb4b cfbb 0415 35bd 8307 6a3d 9ada 0a3d
00000360: d9b5 303c 7c70 0c3d edce 2f3d 1196 12bd
00000370: d755 663d dd09 9cbc 2d6f b7bd 44a1 1a3d
00000380: f16a eabd 473c 49bc 1bb0 743d 4391 c7bd
00000390: 0788 8dbc 3fe3 21bd 2f54 5b3b e894 a6bc
000003a0: c846 e53c 2f9b fb3c 09ce 8cbd 89a2 a1bd
000003b0: ac79 cfbc ba2f e3bd fcf3 9ebd 6873 ac3d
000003c0: f1ad ccbc 19c2 c8bd 8368 b73c ba64 99bd
000003d0: c77f ac3c 1a3a 05bc 637b babd 619f 0bbd
000003e0: 88f7 a0bd d5d2 d8bd e10d 743d 4bf7 55bd
000003f0: a493 773d ec5c 7abc b97e cebb e676 5cbb

output/MatMul_bias f4 [100]
-0.41568255 -0.093235835 -0.051629636 0.16683942 -0.063278615 0.058665432 -0.28337505 -0.008953206
-0.018418157 0.031614788 -0.011332366 -0.22054583 -0.1657765 0.34054795 0.35745355 -0.030441144
-0.21658154 -0.107626915 0.116622105 0.031209052 -0.042214226 -0.074863926 -0.10431178 -0.08923657
0.0073877703 -0.061380405 0.39353463 -0.14283077 -0.011347862 -0.019040026 -0.021011487 -0.13370134
0.06380702 -0.04632167 0.0365698 0.07021986 -0.26707643 -0.02103137 0.018783309 -0.0107961
-0.11192616 0.027722096 0.15410419 0.11808294 0.123907804 -0.077984974 0.11672525 -0.35303053
-0.062008157 -0.0026768781 0.26045397 -0.17109208 -0.054657783 -0.034993723 0.0808563 -0.06573424
-0.21746126 -0.019018846 -0.12339044 -0.07926002 0.48947066 -0.015682103 0.012795563 0.036280133
-0.20921119 -0.17700689 0.32239452 -0.23451786 0.16948643 0.040522896 0.05930494 0.045726154
-0.0076870583 0.06329497 -0.15821487 -0.09739295 0.06408749 0.010557751 -0.019986268 0.16276263
-0.21908097 -0.14785755 0.20248 -0.08679444 0.16120188 0.025283083 0.07796749 -0.07830908
-0.21467313 0.15538482 0.021264702 0.038050767 -0.026981007 0.35050288 0.053529948 0.17207897
-0.010569029 -0.018646643 0.100953236 -0.1873291
00000000: 58d4 d4be 6ef2 bebd 9979 53bd f4d7 2a3e
00000010: 3898 81bd 2a4b 703d 8916 91be 78b0 12bc
00000020: ade1 96bc 827e 013d 63ab 39bc c4d6 61be
00000030: 51c1 29be 4d5c ae3e 2704 b73e b55f f9bc
00000040: 8dc7 5dbe 806b dcbd 92d7 ee3d 20aa ff3c
00000050: d3e8 2cbd 4252 99bd 6aa1 d5bd aac1 b6bd
00000060: 1c15 f23b 056a 7bbd 5f7d c93e 3b42 12be
00000070: 62ec 39bc d4f9 9bbc 4820 acbc 01e9 08be
00000080: 41ad 823d cbbb 3dbd 37ca 153d 6ecf 8f3d
00000090: 3ebe 88be fb49 acbc 74df 993c 20e2 30bc
000000a0: 8b39 e5bd 7319 e33c 7dcd 1d3e 78d5 f13d
000000b0: 60c3 fd3d 96b6 9fbd a60d ef3d 6bc0 b4be
000000c0: 44fc 7dbd 906e 2fbb 395a 853e c332 2fbe
000000d0: d7e0 5fbd 9455 0fbd fd97 a53d ac9f 86bd
000000e0: 2aae 5ebe 69cd 9bbc 21b4 fcbd 1453 a2bd
000000f0: e69b fa3e c177 80bc 7ba4 513c 7a9a 143d
00000100: 753b 56be 4b41 35be e510 a53e 7325 70be
00000110: da8d 2d3e 56fb 253d bde9 723d 594b 3b3d
00000120: b8e3 fbbb cba0 813d 1403 22be f475 c7bd
00000130: 4d40 833d 6bfa 2c3c 3eba a3bc 3fab 263e
00000140: c356 60be f867 17be eb56 4f3e 49c1 b1bd
00000150: 1b12 253e 781e cf3c 6bad 9f3d 8360 a0bd
00000160: 46d3 5bbe 331d 1f3e 5033 ae3c 1fdb 1b3d
00000170: 4607 ddbc 1d75 b33e 3842 5b3d 7835 303e
00000180: b829 2dbc d8c0 98bc 92c0 ce3d 33d3 3fbe

output/kernel/transpose f4 [100, 128]
-0.12371085 -0.17818348 0.13531515 0.15181418 -0.08412098 0.03801412 0.031244412 0.13505965
0.16668674 -0.6568286 -0.095992565 -0.19518477 0.0845373 -0.14376982 -0.0009404708 0.097842455
0.21753791 0.2652255 -0.03954964 -0.15432201 -0.05655286 0.02108547 -0.10307209 0.06799949
0.34117037 0.07024725 -0.018331917 -0.5658065 0.0030714911 0.045543376 0.3008077 0.06254804
-0.288977 -0.04455944 0.09305266 0.11188399 0.05305455 0.11244014 0.10374964 -0.15937153
-0.49921966 -0.11168189 -0.09321206 -0.3584355 -0.26764125 -0.041907735 -0.119813375 -0.112594746
-0.02279378 -0.03266049 -0.5799881 -0.008922773 -0.033535443 0.29656598 -0.021725316 0.13465711
-0.111825295 0.009351291 -0.029289601 -0.07820952 -0.44287875 -0.2804809 -0.117319524 0.039573826
-0.2798319 0.06189256 -0.19526514 -0.02983091 -0.15227945 0.082182795 -0.108532935 -0.3586957
-0.05731317 -0.08601211 -0.24722981 0.18055117 0.034375638 -0.07320125 -0.035750784 -0.034452576
0.096754864 -0.0039914763 -0.46712038 -0.09543297 -0.54559034 -0.10211404 -0.036110334 -0.31017843
0.1301914 -0.7657283 -0.42417842 -0.55019176 0.076844014 -0.10151205 -0.14627396 -0.07718588
-0.053172275 -0.73745155 0.037094958 -0.09803133 -0.1670527 -0.1286653 -0.056682196 0.04519947
0.33707744 -0.12438336 -0.045535002 -0.15829593 -0.14339526 -0.1370706 -0.3102568 -0.000955944
0.11681485 -0.22128081 -0.040752806 0.23531364 -0.11766678 -0.08399621 -0.07754972 0.36175108
0.3346882 -0.26888838 -0.14056611 0.021945927 0.057438426 -0.1525697 0.05265695 0.0397177
-0.154937 -0.116192676 -0.056516934 0.022999294 -0.69369024 0.13805778 -0.06434028 -0.05810089
0.09235545 -0.04751432 0.067782745 -0.12867264 0.084742665 -0.20450863 -0.1826056 0.09121059
-0.3765369 -0.14462383 -0.03320119 0.05534192 -0.010271751 0.01216712 -0.055568922 -0.123415634
0.16843665 0.03711402 0.06630659 0.062625416 -0.01313331 0.09259742 -0.063562274 -0.117127486
0.04138403 -0.041478164 0.07128355 0.044254944 0.005156792 0.28165394 0.17910278 0.11658721
-0.7748559 -0.028951855 -0.14894907 -0.14543779 0.167669 0.051550657 0.08972696 0.060276825
-0.14551395 -0.038844258 -0.1667381 0.12594545 -0.37279227 0.03139487 0.10169737 -0.30982086
0.10306288 -0.23701154 -0.1103804 0.17210929 -0.13906898 0.11977584 -0.13267261 -0.029704148
0.13800061 -0.035497975 -0.059227094 -0.10409631 -0.27125967 0.079331726 0.26252338 -0.06961534
-0.3389068 -0.05584611 -0.030684123 -0.07941723 0.14835802 0.023889666 0.00040454714 0.08839073
-0.19356804 -0.26449075 0.27943495 0.0036675315 0.01598103 0.10280013 -0.15334776 -0.011183659
0.07819187 -0.85833615 -0.34109965 -0.674199 -0.15380727 -0.018495305 -0.059347656 0.06062665
-0.07529391 -0.37859908 0.15095586 0.12414921 -0.17997396 -0.08250178 -0.023226598 -0.07763978
0.13325888 0.07174544 0.013499134 0.15822792 0.26499984 0.05874827 0.00083024567 0.031174438
-0.2842812 -0.13609327 -0.026134625 -0.024384113 0.13976724 -0.034434434 -0.013819854 -0.17750132
0.23322894 -0.18742827 -0.05900389 -0.009320524 -0.19057514 0.04033767 0.014786741 -0.01176083
00000000: 1d5c fdbd bb75 36be 0e90 0a3e 2d75 1b3e
00000010: 9f47 acbd b2b4 1b3d 48f4 ff3c 144d 0a3e
00000020: eeaf 2a3e eb25 28bf c097 c4bd 84de 47be
00000030: e421 ad3d 6538 13be ed89 76ba a061 c83d
00000040: 42c2 5e3e a3cb 873e cefe 21bd 9706 1ebe
00000050: f9a3 67bd 70bb ac3c 7617 d3bd 5143 8b3d
00000060: e2ad ae3e cadd 8f3d d12c 96bc b2d8 10bf
00000070: 124b 493b b18b 3a3d 7803 9a3e 3019 803d
00000080: cbf4 93be f683 36bd 6592 be3d 6f23 e53d
00000090: ba4f 593d 0447 e63d b17a d43d 4a32 23be
000000a0: b899 ffbe 7ab9 e4bd f7e5 bebd dc84 b7be
000000b0: 4608 89be 72a7 2bbd b760 f5bd 1398 e6bd
000000c0: 05ba babc 02c7 05bd 1a7a 14bf d330 12bc
000000d0: 765c 09bd 7fd7 973e 4af9 b1bc 8ee3 093e
000000e0: a904 e5bd 2836 193c bff0 efbc 502c a0bd
000000f0: 01c1 e2be 319b 8fbe 3845 f0bd 2a18 223d
00000100: 2046 8fbe 0e83 7d3d 96f3 47be f45f f4bc
00000110: 25ef 1bbe 744f a83d 8446 debd f6a6 b7be
00000120: 37c1 6abd 1e27 b0bd d029 7dbe 68e2 383e
00000130: 78cd 0c3d 89ea 95bd 6a6f 12bd 251e 0dbd
00000140: 6a27 c63d eeca 82bb 672a efbe 5c72 c3bd
00000150: cfab 0bbf 2a21 d1bd 6ee8 13bd b5cf 9ebe
00000160: e550 053e c506 44bf ea2d d9be 5ed9 0cbf
00000170: 6560 9d3d 8de5 cfbd d7c8 15be a113 9ebd
00000180: 2ccb 59bd a0c9 3cbf e2f0 173d a6c4 c8bd
00000190: dd0f 2bbe d6c0 03be 972b 68bd 1423 393d
000001a0: 6a95 ac3e b4bc febd e982 3abd 5418 22be
000001b0: 35d6 12be 3c5c 0cbe fbd9 9ebe 5198 7aba
000001c0: a03c ef3d 7097 62be 6aec 26bd 0ff6 703e
000001d0: 48fb f0bd 3406 acbd 63d2 9ebd 7037 b93e
000001e0: 405c ab3e bdab 89be 90f0 0fbe f2c7 b33c
000001f0: 8e44 6b3d 3b3b 1cbe d0ae 573d 07af 223d
00000200: cea7 1ebe 6df6 edbd 4d7e 67bd 0469 bc3c
00000210: af95 31bf 055f 0d3e d6c4 83bd 33fb 6dbd
00000220: db24 bd3d 609e 42bd aed1 8a3d c3c2 03be
00000230: 908d ad3d b66a 51be f6fc 3abe 9ecc ba3d
00000240: 72c9 c0be 4518 14be f9fd 07bd 36ae 623d
00000250: d94a 28bc 9a58 473c 3d9c 63bd 56c1 fcbd
00000260: a87a 2c3e df04 183d c0cb 873d c141 803d
00000270: 182d 57bc b7a3 bd3d f02c 82bd 89e0 efbd
00000280: 4d82 293d 02e5 29bd 1cfd 913d ac44 353d
00000290: 4efa a83b f234 903e b866 373e 46c5 ee3d
000002a0: f55c 46bf 712c edbc 1b86 18be a5ed 14be
000002b0: 6cb1 2b3e c826 533d c5c2 b73d d5e4 763d
000002c0: 9c01 15be 281b 1fbd 64bd 2abe d8f7 003e
000002d0: a1de bebe e897 003d b646 d03d d7a0 9ebe
000002e0: a212 d33d 27b3 72be 1f0f e2bd 6b3d 303e
000002f0: 1968 0ebe 094d f53d 54db 07be 1d56 f3bc
00000300: 0850 0d3e 5366 11bd 1c98 72bd 7230 d5bd
00000310: 8ce2 8abe ac78 a23d 7769 863e 7d92 8ebd
00000320: 3185 adbe e4be 64bd 455d fbbc 80a5 a2bd
00000330: 2aeb 173e 43b4 c33c 6619 d439 3306 b53d
00000340: b336 46be 556b 87be 1912 8f3e f85a 703b
00000350: a6ea 823c e088 d23d 3207 1dbe aa3b 37bc
00000360: 0f23 a03d ebbb 5bbf 9da4 aebe 4e98 2cbf
00000370: a77f 1dbe 7783 97bc 8716 73bd a653 783d
00000380: b233 9abd bdd7 c1be 2c94 1a3e f141 fe3d
00000390: 184b 38be b1f6 a8bd b545 bebc 9b01 9fbd
000003a0: 0475 083e 46ef 923d 792b 5d3c 8006 223e
000003b0: 0fae 873e 07a2 703d d8a4 593a 8961 ff3c
000003c0: 4e8d 91be 095c 0bbe 4818 d6bc 31c1 c7bc
000003d0: 251f 0f3e 1f0b 0dbd ab6c 62bc e8c2 35be
000003e0: 91d3 6e3e 32ed 3fbe 10ae 71bd 1cb5 18bc
000003f0: 2126 43be 1d39 253d 1644 723c 7fb0 40bc
