android/app/src/main/assets/quickdraw-acc93-v1.tflite (tflite, 442808 bytes, 10 tensors)

conv2d/Conv2D_bias f4 [16]
-0.5307688 -0.030903377 -0.1884167 -0.005264678 -0.08161871 -0.011088095 -0.0036600193 0.030016761
-0.014823325 0.008295542 -0.4070906 -0.09972243 -0.35731542 -0.40785098 0.16595738 0.01230117
00000000: 77e0 07bf 1429 fdbc 4ff0 40be 5283 acbb
00000010: b627 a7bd d7aa 35bc efdc 6fbb b6e5 f53c
00000020: 88dd 72bc 06ea 073c 2e6e d0be 463b ccbd
00000030: 0cf2 b6be d8d1 d0be bbf0 293e d98a 493c

conv2d/kernel f4 [1, 3, 3, 16]
0.0140164355 -0.09590269 0.08553366 0.19874407 0.19144134 -0.05965169 0.10360461 -0.21433796
-0.16545612 -0.24672675 -0.267836 0.27949873 0.09473542 0.16248757 -0.19803376 -0.11642123
0.11664988 -0.32326734 0.17710616 0.34955356 -0.0660781 0.37228248 -0.29839754 0.106288105
-0.21568954 0.05343894 -0.010722824 -0.42722902 0.19650151 0.15339294 -0.097855195 0.22662936
0.18435143 -0.2198474 0.10896162 0.09527383 -0.14920065 -0.040358573 -0.33319888 0.053864554
0.1649566 -0.28178787 0.31397393 0.11068921 -0.16969894 0.09249817 0.16561413 -0.11205216
0.16421479 0.33339828 0.1413904 -0.2755843 -0.106643155 0.47984582 -0.32805285 -0.2638893
-0.3484601 0.2478737 -0.19282824 0.28608948 0.094503514 -0.178184 -0.07116792 -0.16635181
0.36038092 0.5555418 0.054300323 0.014885996 0.54772264 0.015104505 0.11663702 0.06947837
0.41404292 -0.21639308 0.38983434 0.09816251 0.16777271 0.3402557 -0.28522798 0.36073092
0.020104542 0.13990876 0.15876493 0.24617505 -0.3001859 -0.46565536 0.10823494 0.20895395
0.11651216 0.17659187 0.027065178 -0.4400748 0.031163344 0.13964924 -0.06901643 -0.22187226
0.17084299 -0.25555527 0.019058757 0.029729158 -0.26033664 0.04436363 0.14576419 -0.35326672
0.29488862 -0.045029107 0.22764295 0.10857359 0.16050616 -0.2390572 0.25653368 -0.104241475
-0.031693123 -0.13815409 0.16347623 -0.488318 0.2708148 -0.5888657 0.24899344 0.2793885
0.079515286 0.15284361 0.04952365 0.18670964 0.1572246 -0.050077863 -0.0054367273 0.29424214
-0.010716747 0.03897649 0.14804512 -0.22306076 0.011993962 0.14681312 0.173553 0.029922273
-0.5546579 0.07402007 -0.0015560784 0.033897437 -0.10592213 0.26620165 -0.44447744 -0.20118198
00000000: 31a5 653c a168 c4bd 462c af3d 9183 4b3e
00000010: 3309 443e 5555 74bd a72e d43d 697b 5bbe
00000020: 546d 29be f0a5 7cbe cd21 89be 751a 8f3e
00000030: a504 c23d 2463 263e 5dc9 4abe 416e eebd
00000040: 22e6 ee3d 4c83 a5be 515b 353e aff8 b23e
00000050: f453 87bd cf9b be3e 90c7 98be 94ad d93d
00000060: b8dd 5cbe cae2 5a3d c9ae 2fbc c3bd dabe
00000070: b137 493e 0a13 1d3e 4e68 c8bd 8711 683e
00000080: 9fc6 3c3e ad1f 61be 4527 df3d ed1e c33d
00000090: 0ec8 18be 084f 25bd 0b99 aabe 14a1 5c3d
000000a0: 62ea 283e 8046 90be 31c1 a03e 06b1 e23d
000000b0: 8fc5 2dbe ae6f bd3d c096 293e 9a7b e5bd
000000c0: ec27 283e 2eb3 aa3e a5c8 103e 6319 8dbe
000000d0: ba67 dabd 5aae f53e 8bf6 a7be 801c 87be
000000e0: 5d69 b2be 9ad2 7d3e c474 45be 527a 923e
000000f0: 0f8b c13d de75 36be 7dc0 91bd 2158 2abe
00000100: d983 b83e fd37 0e3f 046a 5e3d 64e4 733c
00000110: 8d37 0c3f e378 773c 64df ee3d ad4a 8e3d
00000120: 6ffd d33e 2696 5dbe 5e98 c73e 6d09 c93d
00000130: 9ccc 2b3e ff35 ae3e 6709 92be b9b1 b83e
00000140: 48b2 a43c 3e44 0f3e 4693 223e 5015 7c3e
00000150: f7b1 99be 616a eebe 48aa dd3d 06f8 553e
00000160: ed9d ee3d 80d4 343e cbb7 dd3c 7c51 e1be
00000170: 454a ff3c 3600 0f3e 7c58 8dbd 7b32 63be
00000180: 77f1 2e3e 24d8 82be 1c21 9c3c 908a f33c
00000190: d84a 85be a3b6 353d 3543 153e 60df b4be
000001a0: a4fb 963e 7170 38bd 3c1b 693e d55b de3d
000001b0: ba5b 243e 69cb 74be 6258 833e 8e7c d5bd
000001c0: a6d0 01bd 4478 0dbe 5066 273e d104 fabe
000001d0: 3da8 8a3e e7bf 16bf 23f8 7e3e 020c 8f3e
000001e0: e9d8 a23d 0983 1c3e 50d9 4a3d d030 3f3e
000001f0: 7cff 203e 721e 4dbd 9326 b2bb e8a6 963e
00000200: 4b95 2fbc d0a5 1f3d 2499 173e 0a6a 64be
00000210: 5382 443c 2e56 163e e1b7 313e 8e1f f53c
00000220: 0ffe 0dbf d697 973d 54f5 cbba 0ad8 0a3d
00000230: b4ed d8bd 954b 883e 8c92 e3be a602 4ebe

conv2d_1/Conv2D_bias f4 [32]
-0.008372894 -0.0310397 -0.25428623 -0.14487278 -0.26544026 -0.09016094 -0.2553911 0.08962175
-0.06441111 -0.10933561 -0.35949844 -0.13960771 -0.071296655 -0.048690196 -0.03315417 -0.16231756
0.028712085 0.036626995 -0.17539652 -0.120332494 -0.019811649 -0.14409219 -0.07367191 -0.005001691
-0.09306981 -0.3105702 0.12195405 -0.14269023 -0.05231807 -0.23846264 -0.13348456 -0.26344132
00000000: 762e 09bc f846 febc ce31 82be 8859 14be
00000010: c9e7 87be 4da6 b8bd 9fc2 82be 9c8b b73d
00000020: f9e9 83bd 59eb dfbd 2e10 b8be 53f5 0ebe
00000030: fb03 92bd 5f6f 47bd abcc 07bd 9336 26be
00000040: 9b35 eb3c 3006 163d 259b 33be e270 f6bd
00000050: 0a4c a2bc e78c 13be 4ce1 96bd 3ae5 a3bb
00000060: 629b bebd 0f03 9fbe 0cc3 f93d 631d 12be
00000070: 794b 56bd 8d2f 74be 2db0 08be c8e1 86be

conv2d_1/kernel f4 [32, 3, 3, 16]
-0.41302964 0.045510087 -0.13567284 -0.057726894 0.31616342 -0.5859868 -0.29078886 0.107903
-0.21034525 -0.04503396 -0.30486608 -0.093262054 0.0103741465 -0.04679145 -0.15835258 0.18695855
-0.41697398 0.26702154 -0.16057518 0.22050019 0.23792486 -0.39347526 -0.053903926 -0.1706207
-0.14077432 -0.22398667 -0.22836368 0.062780865 -0.13802977 0.08901079 -0.009133222 0.087593116
-0.16009621 0.0733387 -0.058397785 -0.0024825027 0.3462362 -0.0036631094 -0.25864774 0.06390807
-0.09194292 -0.21424188 -0.27250078 0.035903513 -0.040476546 0.18422443 -0.17937462 0.11606703
-0.09351148 -0.14839551 -0.14802507 -0.105067365 -0.123554915 -0.58331364 0.05670992 -0.068947814
-0.13149594 0.09521067 0.0860048 -0.20021091 -0.15792876 -0.0613081 -0.12517424 -0.35624158
0.16358218 0.10835264 -0.020105217 -0.2018161 -0.005308454 -0.09596033 0.23072173 -0.04372666
0.15885407 0.23222545 0.17733411 -0.14495625 0.14243212 -0.020243978 -0.30506712 -0.29353473
0.21532084 0.16894233 0.1418826 0.039439846 -0.34621692 -0.01222739 0.2771922 -0.07071129
0.087794274 0.18056965 0.3712895 0.030857563 0.10720083 -0.071655706 -0.25347927 -0.09577394
0.13415863 -0.098982506 0.038751975 -0.26302457 -0.30020183 0.0126417605 0.1888252 0.030569175
0.16551352 0.19731101 0.22288917 -0.11142139 -0.1470131 -0.013226933 -0.45332655 -0.2858464
0.3413813 0.093297355 0.16097541 -0.025160378 -0.21218841 -0.044612896 0.4590215 -0.14958847
0.2024984 -0.012785332 0.33267105 0.12156216 0.116966344 -0.09393957 -0.03668891 -0.22645383
0.13344872 0.33241275 0.1994105 0.2452475 -0.08257408 0.06303974 0.20067874 -0.25498268
0.04233905 0.12015448 0.21689594 0.07516235 0.09408662 0.08265774 0.1647125 -0.09708964
0.19583337 0.44501132 0.25055692 0.03900548 0.06195609 0.009050432 0.17890699 -0.24016587
-0.04608642 0.10931872 0.17938328 0.2949331 0.1898129 0.20200714 0.21591932 -0.10692755
-0.013255396 -0.06689773 -0.09907236 -0.18639393 0.00088451 0.08134011 -0.07887759 -0.09947887
0.058971487 0.09154272 -0.15845849 0.13476104 0.27738646 -0.029044284 0.048939098 -0.04383854
-0.39054447 -0.17645536 -0.2191892 0.07923579 -0.22987194 -0.13054727 -0.190444 -0.18881278
-0.41981226 -0.1350338 -0.31287393 -0.22689435 -0.2026385 -0.13791223 0.057123788 0.047046028
0.32402316 0.41565734 0.15142557 0.2167714 -0.026861582 0.22785245 0.23286007 -0.15559913
0.11194246 0.060359508 0.2728241 0.10227619 0.07450894 0.27252704 -0.078007825 -0.14727235
0.1742807 -0.117566995 0.08215912 -0.24688067 0.066935696 0.1498922 0.05532364 -0.070300736
-0.08346966 -0.1712136 -0.026010273 0.08261702 0.1885786 0.10654846 0.11659936 -0.2982547
-0.2488838 -0.15572697 -0.3925466 -0.34043157 -0.39312434 0.07809931 0.044889398 0.12933956
-0.15757602 -0.1030772 0.08172242 -0.18039441 -0.1286967 -0.49445587 -0.06536882 -0.013855546
0.19042242 0.1178843 -0.047893893 0.027944436 -0.05464332 0.0138133215 0.03410694 -0.0338282
0.1684666 -0.13477328 0.2731019 -0.19342175 0.03524719 0.13891125 -0.055421907 -0.056554694
00000000: 9f78 d3be c968 3a3d d2ed 0abe 0973 6cbd
00000010: 2ce0 a13e 3b03 16bf 47e2 94be 40fc dc3d
00000020: bf64 57be 8875 38bd 6817 9cbe 2d00 bfbd
00000030: 53f8 293c 64a8 3fbd 2e27 22be 1072 3f3e
00000040: 9d7d d5be 0cb7 883e d26d 24be cdca 613e
00000050: 93a2 733e 9775 c9be 5dca 5cbd 31b7 2ebe
00000060: 2527 10be c35c 65be 2bd8 69be 4193 803d
00000070: ad57 0dbe 4a4b b63d 82a3 15bc 0564 b33d
00000080: 43f0 23be 9a32 963d 8432 6fbd 7cb1 22bb
00000090: df45 b13e c710 70bb 7a6d 84be 3ce2 823d
000000a0: 924c bcbd 3962 5bbe 3985 8bbe 900f 133d
000000b0: bcca 25bd 54a5 3c3e fbad 37be 8db4 ed3d
000000c0: f282 bfbd fef4 17be e293 17be 8f2d d7bd
000000d0: 5c0a fdbd 0b54 15bf a948 683d 8334 8dbd
000000e0: dfa6 06be d0fd c23d 4923 b03d 1704 4dbe
000000f0: 14b8 21be 341e 7bbd ad2d 00be 4c65 b6be
00000100: 1682 273e fde7 dd3d b2b3 a4bc e1a8 4ebe
00000110: 8af2 adbb d986 c4bd 5142 6c3e ba1a 33bd
00000120: a4aa 223e 82cc 6d3e 1397 353e 696f 14be
00000130: bad9 113e b3d6 a5bc c231 9cbe 2f4a 96be
00000140: 117d 5c3e 38ff 2c3e ac49 113e ad8b 213d
00000150: 5843 b1be 6455 48bc 23ec 8d3e 15d1 90bd
00000160: 7ccd b33d 40e7 383e a819 be3e 00c9 fc3c
00000170: 1c8c db3d 3ac0 92bd 09c8 81be 2125 c4bd
00000180: e160 093e 57b7 cabd 64ba 1e3d 28ab 86be
00000190: 0eb4 99be 631f 4f3c 655b 413e 356c fa3c
000001a0: 607c 293e e60b 4a3e 0f3d 643e e630 e4bd
000001b0: 9a8a 16be c7b5 58bc 6b1a e8be 765a 92be
000001c0: 88c9 ae3e af12 bf3d bdd6 243e 231d cebc
000001d0: eb47 59be 03bc 36bd de04 eb3e b82d 19be
000001e0: be5b 4f3e 9279 51bc dc53 aa3e 95f5 f83d
000001f0: 0d8c ef3d 6463 c0bd 1c47 16bd 83e3 67be
00000200: c8a6 083e 0132 aa3e 4432 4c3e 2922 7b3e
00000210: 991c a9bd fb1a 813d ba7e 4d3e 178d 82be
00000220: b66b 2d3d 8d13 f63d f819 5e3e b8ee 993d
00000230: 7cb0 c03d 7648 a93d 65aa 283e efd6 c6bd
00000240: 8b88 483e 86d8 e33e ff48 803e 36c4 1f3d
00000250: abc5 7d3d 4348 143c 6533 373e 0bee 75be
00000260: 1dc5 3cbd 7ee2 df3d 40b0 373e 7901 973e
00000270: 505e 423e f6da 4e3e f419 5d3e d5fc dabd
00000280: 292d 59bc ad01 89bd 73e6 cabd 0dde 3ebe
00000290: 76de 673a a595 a63d 938a a1bd 94bb cbbd
000002a0: 168c 713d c07a bb3d f142 22be ccfe 093e
000002b0: 9905 8e3e 47ee edbc 5d74 483d 0a90 33bd
000002c0: 72f5 c7be b7b0 34be 2273 60be 6046 a23d
000002d0: 8d63 6bbe 2fae 05be c003 43be 2358 41be
000002e0: a2f1 d6be 4d46 0abe 0331 a0be fe56 68be
000002f0: 7880 4fbe dd38 0dbe a2fa 693d 56b3 403d
00000300: 5de6 a53e 0ad1 d43e 4e0f 1b3e 52f9 5d3e
00000310: d20c dcbc 2752 693e df72 6e3e 6155 1fbe
00000320: 1742 e53d 883b 773d 9aaf 8b3e 2e76 d13d
00000330: 2598 983d aa88 8b3e 91c2 9fbd 90ce 16be
00000340: a476 323e f7c6 f0bd 0a43 a83d 49ce 7cbe
00000350: 9515 893d 577d 193e 0b9b 623d d5f9 8fbd
00000360: 24f2 aabd 9e52 2fbe 7f13 d5bc 1d33 a93d
00000370: c01a 413e 1436 da3d a5cb ee3d d7b4 98be
00000380: 65db 7ebe e476 1fbe defb c8be 0c4d aebe
00000390: 9847 c9be 88f2 9f3d f2dd 373d 9771 043e
000003a0: 9c5b 21be 241a d3bd 165e a73d 50b9 38be
000003b0: 11c9 03be 5229 fdbe 17e0 85bd 5f02 63bc
000003c0: 18fe 423e 536d f13d 632c 44bd bbeb e43c
000003d0: add1 5fbd 4551 623c b8b3 0b3d 708f 0abd
000003e0: 8282 2c3e 0202 0abe 03d4 8b3e 5a10 46be
000003f0: 5c5f 103d c03e 0e3e 1502 63bd e5a5 67bd

conv2d_2/Conv2D_bias f4 [64]
0.2551593 -0.073457584 -0.030113207 -0.16100238 -0.13496372 -0.00014843226 -0.39730576 -0.13720983
-0.24283293 -0.25894907 -0.030319175 -0.11688653 -0.12410316 -0.048826825 -0.1728286 -0.10064003
0.10158381 -0.034945976 -0.10961257 0.09593438 -0.20311224 -0.13163649 -0.07951517 -0.211658
-0.17974867 -0.0022108688 -0.11690333 -0.32192203 -0.2733123 -0.1652089 -0.11663535 -0.16711222
-0.13697347 -0.1495962 -0.28286213 0.09647642 -0.17065841 -0.01232694 -0.25921285 -0.064290605
0.009696647 -0.21842101 -0.048306428 -0.063527495 0.082311936 -0.23949791 -0.23751065 -0.1780611
-0.085704975 -0.15460894 -0.074454784 -0.04061799 -0.029996362 -0.14106041 0.042231176 -0.14343546
-0.09237242 -0.20120414 0.03753541 -0.113281816 -0.15480496 0.026051726 -0.20625436 0.095189966
00000000: 3da4 823e ee70 96bd f9af f6bc cfdd 24be
00000010: ee33 0abe 7ba4 1bb9 a96b cbbe bc80 0cbe
00000020: 32a9 78be f994 84be eb5f f8bc 3462 efbd
00000030: cc29 febd a3fe 47bd fbf9 30be 5c1c cebd
00000040: 2c0b d03d 8323 0fbd 8e7c e0bd 3f79 c43d
00000050: a8fc 4fbe b7cb 06be d9d8 a2bd e0bc 58be
00000060: 0910 38be 39e4 10bb 036b efbd f7d2 a4be
00000070: 97ef 8bbe 862c 29be 84de eebd 771f 2bbe
00000080: c642 0cbe bf2f 19be 4ed3 90be 6e95 c53d
00000090: 14c1 2ebe eff6 49bc 8cb7 84be cbaa 83bd
000000a0: afde 1e3c c2a9 5fbe f6dc 45bd b41a 82bd
000000b0: 2993 a83d f13e 75be fe35 73be a655 36be
000000c0: 1786 afbd ce51 1ebe c07b 98bd 0d5f 26bd
000000d0: eeba f5bc 2472 10be 99fa 2c3d bfe0 12be
000000e0: c02d bdbd 7508 4ebe bbbe 193d 4c00 e8bd
000000f0: 3185 1ebe 6e6a d53c 5834 53be f5f2 c23d

conv2d_2/kernel f4 [64, 3, 3, 32]
0.08417578 0.010672412 -0.052153178 -0.31858444 -0.021147326 0.094195835 -0.3365617 0.44355378
-0.061659515 -0.34300014 0.124899074 -0.4130912 -0.21507758 -0.019833814 -0.18324852 -0.58152103
-0.031396136 -0.004542386 0.027227223 0.22116004 -1.0972813 0.079498194 -0.1935503 -0.0051744306
-0.3618277 -0.15082501 0.58346224 0.35057178 0.009946575 0.010234556 -0.14608853 0.30509484
-0.2913342 -0.16115692 -0.106542155 -0.6158939 -0.59247285 0.13134192 0.020220364 0.33365706
0.011572524 -0.10047433 -0.29462028 0.3267148 -0.8351305 -0.14048642 -0.2242803 -0.14773248
-0.18640755 -0.07981833 0.12072028 -0.01713583 -0.4108899 0.28622338 -0.095085375 0.28719676
-1.1429814 -0.124448225 0.3508499 0.3616741 -0.5347167 -0.3417713 -0.17069545 -0.15954138
-0.28105265 -0.27351096 0.4380154 -0.44321942 -0.6654211 0.112999596 -0.020999607 0.3359148
-0.14500682 -0.5609353 -0.34684247 0.14330909 -0.578399 -0.24905421 -0.3183931 -0.31257448
0.13120145 0.010312009 -0.18385705 -0.25245637 -0.7653004 0.19954464 -0.24204116 0.09461804
-0.96889144 -0.0016707622 0.28531057 -0.09167167 -0.36184585 -0.44704267 -0.5054771 0.096626
-0.03281477 -0.24753956 0.5690202 0.1748143 -0.1520265 -0.28024843 -0.30311972 0.37224337
-0.19217989 -0.543192 0.0658182 -0.14551009 -0.16930681 -0.14044955 0.016472628 -0.3560633
-0.0022557508 -0.069835305 -0.24935436 -0.15667729 -0.16912529 0.05989018 0.151285 -0.08839312
0.14021774 0.35347903 0.31116906 -0.31413454 -0.017576177 0.18807454 0.21316816 0.038941044
-0.31906703 -0.42813686 -0.14861614 0.08570242 0.14851747 0.12233611 -0.20298295 0.25452325
0.1114561 -0.7880866 -0.30475056 -0.07484687 -0.5451118 0.091409564 -0.4173196 -0.25242913
0.014824114 0.04720538 -0.29007694 0.18047303 -0.09528163 -0.40950516 0.2175609 0.037776403
-0.39714903 -0.025839841 0.17741989 0.2348407 -0.47566727 0.11763064 -0.06932501 -0.13334654
-0.17451692 0.08764684 0.0049281497 -0.56904274 0.09750168 -0.30663168 -0.6132623 0.046317704
-0.01252459 -0.39302936 -0.28593436 -0.0039169043 -0.049961086 0.008445429 -0.024176087 -0.64973754
-0.39168984 -0.23749988 -0.6163378 -0.15606178 0.06420983 -0.561781 -0.14253312 -0.29465902
-0.33697414 -0.46251494 0.088415734 0.04070572 -0.3789999 0.045927547 -0.10077214 -0.4474863
0.088433184 -0.36876526 0.014079791 0.04487133 -0.3014121 0.12723756 0.038413793 0.052285127
-0.3453794 -0.052192852 0.0011405107 -0.103435814 -0.3476938 0.031715386 -0.49900705 -0.16814248
0.23036227 -0.28394428 -0.24366078 -0.12239605 -0.66438943 0.056911413 0.1481471 0.013846428
-0.13862741 0.053108092 0.22235134 -0.13211648 -0.37129816 0.2692596 -0.04369905 -0.11615378
-0.094830506 -0.22789212 -0.2599999 0.019420212 0.039172888 -0.10973305 0.061079778 0.023388734
-0.12287118 -0.38780597 0.2849477 -0.44103658 -0.1576585 0.00673635 -0.0028203253 -0.35926992
-0.10979537 -0.594756 -0.07111866 -0.2192664 -0.49450782 -0.53928685 -0.07060904 -0.047526002
-0.28115404 -0.23014459 0.12767296 -0.10080468 -0.63373727 0.5518615 -0.48902568 0.090047725
00000000: 5a64 ac3d 57db 2e3c 929e 55bd 801d a3be
00000010: 283d adbc bfe9 c03d d151 acbe 7b19 e33e
00000020: b08e 7cbd b79d afbe 16cb ff3d b180 d3be
00000030: 4c3d 5cbe 867a a2bc 80a5 3bbe 90de 14bf
00000040: 3c99 00bd 4cd8 94bb a00b df3c c777 623e
00000050: b773 8cbf f3cf a23d 0d32 46be 458e a9bb
00000060: 7b41 b9be df71 1abe c85d 153f 257e b33e
00000070: f6f6 223c d7ae 273c 3b98 15be 6435 9c3e
00000080: c229 95be 5206 25be c632 dabd 39ab 1dbf
00000090: 4dac 17bf 7f7e 063e 2da5 a53c 19d5 aa3e
000000a0: af9a 3d3c 7cc5 cdbd 78d8 96be 2a47 a73e
000000b0: 1dcb 55bf acdb 0fbe bca9 65be 2f47 17be
000000c0: 9fe1 3ebe cb77 a3bd 323c f73d 7160 8cbc
000000d0: 2960 d2be df8b 923e 1fbc c2bd 740b 933e
000000e0: 374d 92bf b6de febd 99a2 b33e 592d b93e
000000f0: 32e3 08bf a6fc aebe caca 2ebe d15e 23be
00000100: 22e6 8fbe a109 8cbe 8e43 e03e a8ed e2be
00000110: 0a59 2abf 556c e73d 5e07 acbc 06fd ab3e
00000120: ab7c 14be 7599 0fbf 5695 b1be 9ebf 123e
00000130: f511 14bf 1108 7fbe 6c04 a3be c309 a0be
00000140: ac59 063e b3f3 283c 0645 3cbe f641 81be
00000150: baea 43bf 6e55 4c3e a3d9 77be 1ac7 c13d
00000160: 4509 78bf 7afd daba 3a14 923e 5bbe bbbd
00000170: dc43 b9be c7e2 e4be f266 01bf dae3 c53d
00000180: c868 06bd 037b 7dbe 4fab 113f 8502 333e
00000190: d6ac 1bbe b97c 8fbe 8232 9bbe af96 be3e
000001a0: ceca 44be a20e 0bbf b1cb 863d 9900 15be
000001b0: c45e 2dbe 02d2 0fbe 9bf1 863c ee4d b6be
000001c0: 38d5 13bb d005 8fbd c056 7fbe 0370 20be
000001d0: 2e2f 2dbe 684f 753d 74ea 1a3e 7407 b5bd
000001e0: 3d95 0f3e 34fb b43e 8d51 9f3e 3ed6 a0be
000001f0: eafb 8fbc 9d96 403e c148 5a3e a580 1f3d
00000200: c15c a3be c134 dbbe d42e 18be c084 af3d
00000210: f714 183e 5b8b fa3d c3da 4fbe df50 823e
00000220: 1943 e43d 0bc0 49bf 4408 9cbe 5149 99bd
00000230: 728c 0bbf f034 bb3d eaaa d5be 643e 81be
00000240: d7e0 723c 6e5a 413d f784 94be eccd 383e
00000250: 0423 c3bd a9aa d1be 49c8 5e3e 6ebb 1a3d
00000260: 1e57 cbbe 13ae d3bc 8fad 353e 157a 703e
00000270: a98a f3be 55e8 f03d 45fa 8dbd ff8b 08be
00000280: 90b4 32be 3080 b33d 517c a13b c9ac 11bf
00000290: f6ae c73d d4fe 9cbe c2fe 1cbf a2b7 3d3d
000002a0: f033 4dbc 253b c9be fd65 92be 6059 80bb
000002b0: ffa3 4cbd b25e 0a3c ee0c c6bc 3355 26bf
000002c0: 928b c8be 2b33 73be 50c8 1dbf a9ce 1fbe
000002d0: 7180 833d e1d0 0fbf 34f4 11be 8cdd 96be
000002e0: e087 acbe c2ce ecbe 4f13 b53d 0bbb 263d
000002f0: 460c c2be 861e 3c3d a061 cebd ed1c e5be
00000300: 751c b53d cdce bcbe ecae 663c 00cb 373d
00000310: b052 9abe 904a 023e c857 1d3d ee28 563d
00000320: 92d5 b0be 2cc8 55bd 307d 953a 28d6 d3bd
00000330: ec04 b2be fee7 013d da7d ffbe 8b2d 2cbe
00000340: 16e4 6b3e 2561 91be 3682 79be c8aa fabd
00000350: 6d15 2abf f11b 693d e0b3 173e 21dc 623c
00000360: 58f4 0dbe df87 593d 12b0 633e 8b49 07be
00000370: cb1a bebe 65dc 893e c6fd 32bd 08e2 edbd
00000380: 7f36 c2bd 8d5c 69be b51e 85be 2317 9f3c
00000390: c073 203d b9bb e0bd ca2e 7a3d bb99 bf3c
000003a0: e3a3 fbbd 818e c6be aae4 913e 8ccf e1be
000003b0: 3b71 21be 99bc dc3b 35d5 38bb 3af2 b7be
000003c0: 65dc e0bd ee41 18bf a9a6 91bd 5f87 60be
000003d0: 2130 fdbe b40e 0abf 799b 90bd a0aa 42bd
000003e0: 6cf3 8fbe 06ab 6bbe b3bc 023e af72 cebd
000003f0: 9b3c 22bf cc46 0d3f 9361 fabe f16a b83d

dense/MatMul_bias f4 [128]
0.05290912 -0.17351972 0.08719933 0.15468223 0.020243237 -0.23112275 -0.0763855 0.0650955
0.27720848 -0.0135870855 -0.024648085 -0.15853979 0.06226453 -0.015863989 0.13205503 -0.027225943
-0.030384714 0.034873787 -0.037662033 0.0065234834 0.09413128 -0.07093409 -0.014183608 0.06255043
0.03995091 0.007700729 -0.013347696 0.17387375 -0.048660837 -0.064236484 -0.1397344 -0.1452864
-0.0065978724 0.109943725 -0.011721617 -0.013386103 -0.03800099 0.04416054 -0.15655938 -0.07315028
0.068418086 -0.021885829 0.18582335 -0.03430262 -0.054353274 -0.048810095 -0.04226371 -0.110221274
-0.015040253 -0.072998516 0.24993628 0.026629142 -0.15002823 -0.14641055 0.27433446 0.064944625
-0.03451907 -0.0501489 0.13569115 0.065361716 -0.28026637 -0.04288133 -0.034237 -0.0232581
-0.066594295 -0.025676472 -0.052831277 0.03634866 -0.014043282 -0.0202832 -0.021957446 -0.24572097
0.090821005 0.07987631 -0.03824862 -0.119060345 -0.0099791465 -0.012706836 -0.15028012 -0.039199114
0.05473983 -0.029839035 -0.2408558 0.1734364 -0.030998057 -0.1499146 -0.048906777 0.099576175
-0.0579911 -0.041114688 0.107406385 0.017087271 -0.13460468 0.1703989 -0.07808868 0.1280735
-0.07718365 -0.011920148 0.0024113813 -0.006145692 -0.02818043 0.09741874 -0.03577323 0.030655846
-0.06223123 -0.022332178 -0.04851071 0.02602746 -0.008176583 0.11919476 0.0633884 0.07111644
-0.058766562 -0.026428506 0.24539036 -0.17288539 -0.013586601 -0.0050542853 -0.081959814 -0.033885777
0.29203 -0.063199855 0.27144554 -0.046878483 -0.051943023 0.10353409 0.32387283 0.09547938
00000000: 3cb7 583d 27af 31be 9095 b23d 0565 1e3e
00000010: 25d5 a53c 71ab 6cbe 0070 9cbd ca50 853d
00000020: 45ee 8d3e 5e9c 5ebc c8ea c9bc 4158 22be
00000030: 1809 7f3d 32f5 81bc 6f39 073e f108 dfbc
00000040: 5de9 f8bc d1d7 0e3d 8143 1abd f2c2 d53b
00000050: e7c7 c03d e445 91bd 5d62 68bc 711a 803d
00000060: 91a3 233d 6656 fc3b 4bb0 5abc f60b 323e
00000070: 9650 47bd 6b8e 83bd 8916 0fbe f5c5 14be
00000080: f732 d8bb 2d2a e13d 060c 40bc 6351 5bbc
00000090: eda6 1bbd afe1 343d 1a51 20be d0cf 95bd
000000a0: c81e 8c3d e949 b3bc 7a48 3e3e e780 0cbd
000000b0: 8aa1 5ebd 18ed 47bd b61c 2dbd b1bb e1bd
000000c0: 656b 76bc 3f80 95bd 4cef 7f3e 5c25 da3c
000000d0: 00a1 19be a6ec 15be 9175 8c3e b001 853d
000000e0: de63 0dbd ef68 4dbd 9ff2 0a3e 5ddc 853d
000000f0: 137f 8fbe 55a4 2fbd 193c 0cbd c587 bebc
00000100: 9762 88bd 7757 d2bc 9c65 58bd 55e2 143d
00000110: cb15 66bc f428 a6bc 1ae0 b3bc 479e 7bbe
00000120: 5d00 ba3d 3196 a33d 96aa 1cbd e9d5 f3bd
00000130: 937f 23bc 5530 50bc 08e3 19be 408f 20bd
00000140: df36 603d fe70 f4bc e7a2 76be 5099 313e
00000150: a3ef fdbc 3783 19be 7952 48bd 98ee cb3d
00000160: 1388 6dbd e067 28bd e1f7 db3d 9bfa 8b3c
00000170: cfd5 09be 0d7d 2e3e f5ec 9fbd b325 033e
00000180: 7612 9ebd b94c 43bc 4408 1e3b cd61 c9bb
00000190: a5da e6bc 7a83 c73d f386 12bd f821 fb3c
000001a0: 2de6 7ebd f9f1 b6bc 2bb3 46bd 8a37 d53c
000001b0: 13f7 05bc 621c f43d c7d1 813d 7fa5 913d
000001c0: 35b5 70bd 9880 d8bc 9c47 7b3e de08 31be
000001d0: 569a 5ebc 6b9e a5bb 8cda a7bd d0cb 0abd
000001e0: f584 953e ed6e 81bd e9fa 8a3e a703 40bd
000001f0: 35c2 54bd ae09 d43d a9d2 a53e b18a c33d

dense/kernel/transpose f4 [128, 576]
0.17852393 0.26757097 -0.30821663 -0.17800881 -0.045500994 -0.14203301 -0.52458006 0.058233604
-0.13282049 -0.4556076 -0.19544283 0.30491087 -0.2786706 0.07328784 0.0027683978 0.12290178
-0.014525081 0.21477689 0.046964865 0.48044485 0.2118467 -0.22840035 -0.20896211 0.050617415
0.12283436 -0.07739615 0.10089282 0.2193643 0.02872725 -0.1744656 0.17079797 -0.078012206
0.0008088448 0.3073799 -0.14418533 -0.15564615 0.14554426 0.2034885 -0.06574494 -0.017749796
0.16727881 0.08910974 -0.30341697 -0.10970644 0.025718208 0.005643818 0.012925619 -0.039539658
0.15637578 0.0335641 -0.090927504 0.14614037 0.56564695 -0.04341098 0.11131904 -0.044712696
-0.10463003 -0.039089687 -0.15919933 -0.09646362 0.19570175 -0.15909868 -0.148947 0.3563226
0.0961594 -0.2189622 -0.2545719 0.1018705 -0.054565422 -0.39261267 0.07070234 -0.32825977
0.18986033 -0.18631858 0.062617004 -0.09488222 -0.19128713 0.033140704 -0.26208293 -0.04695437
0.23538613 -0.041343477 -0.27993405 -0.030221041 -0.045816876 -0.049446948 -0.26252648 -0.008361294
0.08462294 0.12175652 0.02202941 0.093053244 -0.17637864 -0.28031155 -0.38851354 0.54583246
0.1045066 0.20399688 -0.00074906985 -0.011107867 0.016334813 -0.049504824 0.046006627 0.0803061
0.24264826 -0.015578875 -0.081894144 -0.16652504 0.178474 0.12577507 0.037614696 -0.32012695
-0.23355833 0.109688126 0.12060806 -0.8151638 -0.28275818 -0.021759946 -0.06566693 -0.040914264
0.0044175014 -0.32882458 0.14996685 -0.08617808 0.038676236 0.086399786 0.09801804 -0.026973473
0.22854854 -0.21565539 0.15088758 0.027575918 -0.30334243 -0.22210707 0.09265105 -0.26641738
-0.1319228 -0.2702464 -0.13457991 0.25570062 -0.15532419 0.2589482 -0.22681528 0.06211623
0.22934917 -0.1777218 0.016920691 0.029177232 0.005870248 -0.118390314 0.05875606 -0.19428903
0.27071738 0.016724367 -0.029176256 -0.06044185 0.049459998 0.07179082 0.12944902 0.006483442
-0.2968395 -0.080425784 -0.10518954 0.13712609 -0.063495465 -0.29747397 -0.13336739 0.07919615
0.29004726 -0.007285907 -0.16064546 -0.2346505 0.069891974 0.043847464 0.3860434 -0.16713098
-0.10971206 0.09897142 0.017214157 -0.21901554 0.44175774 -0.061538905 0.013323902 0.055301864
-0.0050392607 0.30639946 0.24859062 -0.52202874 0.09866594 0.21355508 0.055433836 0.046359763
-0.0065811784 0.030433843 -0.15310746 0.053959712 -0.106633805 0.084324695 0.0016503673 0.09043546
0.05979649 0.0945519 0.036072556 -0.0052319174 -0.15668331 0.29813653 -0.051937077 0.015713857
0.06622151 0.061651096 -0.074612446 -0.39961544 -0.0398595 0.09410612 0.07148233 0.020879617
0.08687104 0.03437478 0.03390451 0.09359914 -0.1643192 -0.11965048 -0.14032735 0.03593185
0.06665764 -0.0914408 0.08259973 -0.016354878 0.10749486 0.024808614 -0.06536376 -0.20081528
-0.09623494 -0.039700057 0.293463 -0.27074182 -0.14158861 0.005550263 -0.08947804 0.1657553
-0.020083915 0.27488387 0.031608246 -0.04725776 -0.0035646767 -0.10989104 -0.3146108 0.18583992
-0.01351909 0.027241243 0.21811295 -0.06353931 0.30106995 -0.2600975 -0.15738392 -0.19506888
00000000: face 363e 10ff 883e 92ce 9dbe f147 36be
00000010: 405f 3abd 1a71 11be e14a 06bf 5c86 6e3d
00000020: 1802 08be 6645 e9be 2a22 48be 471d 9c3e
00000030: eaad 8ebe ef17 963d 026e 353b eeb3 fb3d
00000040: 9bfa 6dbc 79ee 5b3e 3b5e 403d defc f53e
00000050: 57ee 583e c8e1 69be 2afa 55be 3554 4f3d
00000060: 9590 fb3d df81 9ebd e5a0 ce3d 09a1 603e
00000070: 6955 eb3c 1ca7 32be aae5 2e3e ddc4 9fbd
00000080: a808 543a e660 9d3e 52a5 13be b461 1fbe
00000090: 8e09 153e 4a5f 503e 48a5 86bd 0568 91bc
000000a0: 234b 2b3e 2b7f b63d 7859 9bbe c5ad e0bd
000000b0: feae d23c c7ef b83b fac5 533c 56f4 21bd
000000c0: f920 203e 827a 093d 3338 babd d2a5 153e
000000d0: 3dce 103f b6cf 31bd 3dfb e33d a924 37bd
000000e0: 4548 d6bd 821c 20bd 2605 23be b88e c5bd
000000f0: 0a66 483e c4ea 22be 9085 18be ea6f b63e
00000100: 38ef c43d a137 60be 4057 82be 7ba1 d03d
00000110: fe7f 5fbd 8704 c9be 63cc 903d aa11 a8be
00000120: bf6a 423e 4cca 3ebe 583d 803d 9c51 c2bd
00000130: c6e0 43be 8cbe 073d bc2f 86be 3a53 40bd
00000140: 1009 713e c757 29bd 8453 8fbe 1e92 f7bc
00000150: 7aaa 3bbd e288 4abd df69 86be cffd 08bc
00000160: cb4e ad3d 7b5b f93d 0577 b43c b392 be3d
00000170: 9a9c 34be ff84 8fbe 3feb c6be adbb 0b3f
00000180: 8e07 d63d 8fe4 503e 3a5d 44ba c5fd 35bc
00000190: 96d0 853c 92c5 4abd 7271 3c3d 8677 a43d
000001a0: c978 783e 8a3e 7fbc 1eb8 a7bd 8a85 2abe
000001b0: e3c1 363e 2ecb 003e de11 1a3d aee7 a3be
000001c0: ea29 6fbe 2ba4 e03d 5c01 f73d 93ae 50bf
000001d0: aec5 90be ea41 b2bc 627c 86bd b795 27bd
000001e0: b0c0 903b b25b a8be e990 193e 227e b0bd
000001f0: f96a 1e3d 5ff2 b03d afbd c83d 79f7 dcbc
00000200: a108 6a3e c4d4 5cbe 4682 1a3e e4e6 e13c
00000210: b34f 9bbe 0970 63be d5bf bd3d dc67 88be
00000220: c516 07be bc5d 8abe 51cf 09be 31eb 823e
00000230: 4e0d 1fbe dc94 843e 4442 68be 976d 7e3d
00000240: 82da 6a3e b4fc 35be 439d 8a3c 1705 ef3c
00000250: 365b c03b 9f76 f2bd 32aa 703d b4f3 46be
00000260: 789b 8a3e 8a01 893c 0b03 efbc e091 77bd
00000270: 9196 4a3d 1107 933d 498e 043e 0e73 d43b
00000280: 59fb 97be 46b6 a4bd 9d6d d7bd c86a 0c3e
00000290: e909 82bd 824e 98be 7691 08be 9731 a23d
000002a0: 1381 943e 9ebe eebb 3e80 24be 3848 70be
000002b0: 8623 8f3d 6699 333d 7ba7 c53e 6224 2bbe
000002c0: b7b0 e0bd 87b1 ca3d b404 8d3c 9c45 60be
000002d0: 122e e23e 3810 7cbd 7f4c 5a3c 3584 623d
000002e0: 6220 a5bb 64e0 9c3e 8a8e 7e3e ada3 05bf
000002f0: 5e11 ca3d 2fae 5a3e 970e 633d bce3 3d3d
00000300: eda6 d7bb 6550 f93c 34c8 1cbe dc04 5d3d
00000310: d362 dabd 6db2 ac3d 2351 d83a 3a36 b93d
00000320: 2aed 743d 6da4 c13d d1c0 133d 8170 abbb
00000330: 9771 20be 5aa5 983e f9bb 54bd 59ba 803c
00000340: 259f 873d dc85 7c3d 69ce 98bd 659a ccbe
00000350: b743 23bd b6ba c03d 5465 923d bb0b ab3c
00000360: 72e9 b13d 92cc 0c3d 75df 0a3d e8b0 bf3d
00000370: 4b43 28be 500b f5bd f9b1 0fbe 472d 133d
00000380: cd83 883d 5045 bbbd 0c2a a93d aafa 85bc
00000390: 4426 dc3d 6f3b cb3c 6fdd 85bd 85a2 4dbe
000003a0: d316 c5bd 879c 22bd c840 963e ac9e 8abe
000003b0: 9bfc 10be fbde b53b 4340 b7bd c2bb 293e
000003c0: 0687 a4bc 94bd 8c3e a677 013d 5a91 41bd
000003d0: 5a9d 69bb 8e0e e1bd ab14 a1be d24c 3e3e
000003e0: 2c7f 5dbc 0729 df3c 0059 5f3e e620 82bd
000003f0: d725 9a3e 802b 85be 4029 21be 23c0 47be

output/MatMul_bias f4 [100]
-0.14836317 -0.010058246 -0.09402725 0.2917336 0.007960595 -0.057307504 -0.20968392 -0.13170625
0.078063756 -0.06571845 0.43303308 0.16735892 -0.1580679 -0.174536 -0.115365766 -0.18575864
-0.010420714 -0.27363804 -0.14466833 0.01570838 0.096510924 0.03708141 -0.35502744 -0.29272577
-0.11767063 -0.012844457 -0.047567144 0.042625003 0.02264934 -0.087074436 -0.07301075 0.005840979
0.063997194 0.3080356 -0.13654488 0.026411321 0.019780988 0.07423099 -0.06917535 0.07465058
-0.13899967 -0.06629058 -0.08211974 -0.026231667 -0.04345431 -0.08632216 -0.122034654 0.04431576
-0.05278632 0.17745392 -0.24191982 -0.01812949 -0.023992438 0.15463574 -0.022453405 0.36524785
-0.10564461 -0.0052302117 -0.123883344 -0.24161105 -0.10952751 0.2314615 -0.07350792 -0.06979495
-0.02327714 0.045332793 0.35671997 0.06886862 0.07691875 0.29156992 0.13689823 0.17040996
-0.13602148 0.20315881 0.21017163 -0.03335964 -0.11549646 0.16040431 -0.06878301 -0.07915821
-0.06716148 0.13523301 -0.013075934 -0.05514625 -0.04790855 -0.20240326 0.09762609 0.09687748
-0.076046795 0.085009426 -0.0093191555 0.14880854 0.011282877 0.12354275 0.082222335 0.0989052
-0.16586012 0.03956403 -0.03531274 -0.30805883
00000000: 84ec 17be 57cb 24bc 5c91 c0bd 1b5e 953e
00000010: 286d 023c 46bb 6abd 62b7 56be 01de 06be
00000020: e4df 9f3d 6597 86bd 83b6 dd3e 2360 2b3e
00000030: 8ddc 21be 91b9 32be e344 ecbd 8337 3ebe
00000040: a4bb 2abc 491a 8cbe ef23 14be dcae 803c
00000050: 85a7 c53d ade2 173d 28c6 b5be 27e0 95be
00000060: 4dfd f0bd 8f71 52bc c4d5 42bd 8e97 2e3d
00000070: 1c8b b93c 1554 b2bd a986 95bd af65 bf3b
00000080: f610 833d d8b6 9d3e 6cd2 0bbe 8e5c d83c
00000090: bd0b a23c 6b06 983d ceab 8dbd 67e2 983d
000000a0: ee55 0ebe 5bc3 87bd 652e a8bd cbe3 d6bc
000000b0: 26fd 31bd acc9 b0bd 4eed f9bd 7184 353d
000000c0: 7836 58bd 7bb6 353e d4b9 77be 4c84 94bc
000000d0: ca8b c4bc d558 1e3e 34f0 b7bc c401 bb3e
000000e0: 345c d8bd 3262 abbb 8db6 fdbd e368 77be
000000f0: f64f e0bd 3e04 6d3e 528b 96bd a8f0 8ebd
00000100: b3af bebc e1ae 393d 00a4 b63e fe0a 8d3d
00000110: 9487 9d3d a748 953e 0d2f 0c3e f37f 2e3e
00000120: 3749 0bbe dd08 503e 3b37 573e 1ea4 08bd
00000130: 6889 ecbd 0741 243e 1bde 8cbd b31d a2bd
00000140: f58b 89bd 867a 0a3e 713c 56bc 09e1 61bd
00000150: c13b 44bd cd42 4fbe 30f0 c73d b367 c63d
00000160: 6cbe 9bbd 6c19 ae3d 5faf 18bc 4461 183e
00000170: d1db 383c fb03 fd3d 2f64 a83d cf8e ca3d
00000180: 3cd7 29be e40d 223d 17a4 10bd e3b9 9dbe

output/kernel/transpose f4 [100, 128]
-0.16099209 0.17873527 0.21385394 0.017629663 -0.4224737 -0.3989084 -0.0006575831 -0.03349243
0.2546341 0.47834507 -0.10055703 -0.04321624 -0.03020946 0.05004874 -0.100282095 -0.020100638
-0.47056755 -0.09236317 0.016843546 -0.18647195 0.0683152 -0.42353472 0.023422172 -0.23610851
-0.5782282 0.05536622 0.024399351 0.20280369 0.14839564 -0.04104975 0.37027207 0.1179724
0.12771237 0.052077357 0.072590314 -0.18067601 0.06802354 -0.2193109 -0.18833153 0.08396045
0.09119902 0.06856246 0.11752252 -0.08953091 -0.08308707 -0.3030602 -0.12456733 -0.045308385
-0.18678005 0.19058692 -0.24231422 0.16519494 -0.13205342 0.02289738 -0.2696907 0.026798647
0.08294759 -0.20786369 -0.12465283 0.34529892 -0.032485265 -0.15123065 -0.00208887 -0.040536895
-0.4083026 0.123996936 0.025209775 0.14166017 -0.056413464 -0.08589829 -0.01801592 0.1902974
0.27918157 -0.27992103 -0.09274604 -0.13901412 -0.10291071 0.09156785 -0.06995155 0.041918837
0.06671161 -0.22077067 -0.04080846 -0.054056145 -0.07297381 -0.39953035 -0.91125196 -0.23103574
0.16584414 -0.054764587 -0.3754804 -0.061153904 -0.15164044 -0.3656383 -0.055113032 -0.10888455
-0.028013363 -0.31484205 -0.21905771 0.12699437 0.045513712 0.26090345 0.06657766 -0.029021915
-0.04479578 0.1313237 -0.15190537 0.022443613 0.07796248 -0.075086415 0.059888147 0.2482933
-0.12360307 0.13766055 -0.229261 -0.042016655 -0.15600215 0.0012928306 -0.21321213 -0.18034756
-0.06896058 -0.16475548 -0.3654767 0.10041818 -0.1771107 0.15810743 -0.110567234 -0.15282048
0.008775553 0.07638499 -0.20216511 0.2680118 -0.04328568 -0.009388264 -0.034084536 -0.097364545
-0.06894092 0.01141394 -0.1317651 -0.09296466 0.006672662 -0.10100553 0.16499314 0.11650449
-0.6693048 0.06607969 -0.09611876 -0.14152546 -0.05880322 -0.33094573 -0.0076063406 0.2714887
-0.76912546 0.16870138 -0.015914714 0.05845516 0.16369444 0.022659827 0.06291766 0.050422914
0.10523789 0.038188502 -0.15996738 -0.0394473 -0.02588184 0.03047253 -0.04130229 -0.12877731
-0.26800084 -0.048926584 -0.05960508 0.04405519 0.0054504597 0.07208223 -0.10861799 -0.19147396
0.055643458 -0.27285495 0.17179926 0.13850595 -0.24991941 -0.11276362 -0.13754517 -0.4150659
0.114526615 0.052415874 0.08383831 -0.11389802 0.063269466 -0.040406927 0.076884255 0.10120147
0.1157638 0.013138857 0.15198453 -0.046117574 0.096698895 -0.17272149 0.07845619 0.03232902
0.27672696 -0.11031476 -0.17487669 -0.020007156 -0.05188275 -0.17869838 0.06300439 0.15601666
-0.0047369176 0.025854347 0.23597416 0.07172342 0.013716649 0.032457132 -0.09537005 0.009656855
-0.123066045 0.03747039 -0.6809864 -0.17491966 -0.38073707 0.11991879 0.1307881 0.008409473
-0.13588004 -0.06779107 -0.38404188 0.1523903 -0.0436683 0.26770175 -0.09985548 -0.19580694
0.074365154 -0.054241527 -0.093905024 -0.2176727 0.028331447 0.3161004 -0.05189733 -0.16271329
-0.08898649 0.08285505 0.19726562 0.15130438 -0.11388891 -0.30879727 0.0150611885 -0.05574076
-0.27624598 -0.1015424 -0.09391567 0.24493122 -0.008379001 0.11447544 -0.18138179 -0.22252993
00000000: 1cdb 24be 6106 373e 87fc 5a3e 156c 903c
00000010: 794e d8be b93d ccbe a861 2cba 5c2f 09bd
00000020: 675f 823e a5e9 f43e d8f0 cdbd 8303 31bd
00000030: d479 f7bc e8ff 4c3d b360 cdbd 18aa a4bc
00000040: 3bee f0be e728 bdbd 7afb 893c 81f2 3ebe
00000050: d7e8 8b3d 8bd9 d8be dbdf bf3c 6ec6 71be
00000060: c306 14bf b1c7 623d 26e1 c73c c5ab 4f3e
00000070: 07f5 173e c823 28bd 4d94 bd3e 839b f13d
00000080: 08c7 023e 114f 553d 3baa 943d 2203 39be
00000090: ed4f 8b3d 0993 60be fbd9 40be 75f3 ab3d
000000a0: 8dc6 ba3d 7a6a 8c3d a6af f03d fb5b b7bd
000000b0: 8e29 aabd b52a 9bbe 281d ffbd 4995 39bd
000000c0: 4543 3fbe 3829 433e 3821 78be dd28 293e
000000d0: 0339 07be 4993 bb3c e614 8abe d688 db3c
000000e0: 6de0 a93d 38da 54be fc49 ffbd 05cb b03e
000000f0: 450f 05bd 35dc 1abe 6ce5 08bb 040a 26bd
00000100: 0a0d d1be 1bf2 fd3d bb84 ce3c 5d0f 113e
00000110: ce11 67bd 71eb afbd 1f96 93bc 52dd 423e
00000120: e3f0 8e3e cf51 8fbe a3f1 bdbd b859 0ebe
00000130: dac2 d2bd ed87 bb3d c242 8fbd 16b3 2b3d
00000140: 19a0 883d b511 62be c626 27bd fa69 5dbd
00000150: 4b73 95bd 3e8f ccbe cf47 69bf a294 6cbe
00000160: 0cd3 293e d550 60bd f83e c0be 847c 7abd
00000170: a247 1bbe f134 bbbe 34be 61bd ddfe debd
00000180: 487c e5bc fa32 a1be aa50 60be d00a 023e
00000190: 966c 3a3d 2395 853e de59 883d 5ebf edbc
000001a0: c87b 37bd b879 063e 158d 1bbe abdb b73c
000001b0: cbaa 9f3d e8c6 99bd 464d 753d 9940 7e3e
000001c0: 9b23 fdbd e3f6 0c3e 65c3 6abe a819 2cbd
000001d0: 07bf 1fbe 3274 a93a 4854 5abe 08ad 38be
000001e0: 343b 8dbd a9b5 28be c31f bbbe 0ca8 cd3d
000001f0: 825c 35be eae6 213e 1371 e2bd f97c 1cbe
00000200: 56c7 0f3c bc6f 9c3d 5f04 4fbe d838 893e
00000210: 534c 31bd 3cd1 19bc 3a9c 0bbd 1067 c7bd
00000220: e630 8dbd 8901 3b3c 6eed 06be 4164 bebd
00000230: 59a6 da3b fddb cebd f6f3 283e e899 ee3d
00000240: 8f57 2bbf ca54 873d ead9 c4bd 0dec 10be
00000250: a5db 70bd b871 a9be 9c3e f9bb 9100 8b3e
00000260: 68e5 44bf 0ec0 2c3e 935f 82bc ae6e 6f3d
00000270: 849f 273e 1aa1 b93c f9da 803d 4288 4e3d
00000280: f686 d73d 8c6b 1c3d 7dce 23be 7e93 21bd
00000290: 2706 d4bc 87a1 f93c 972c 29bd 33de 03be
000002a0: 6837 89be 3e67 48bd 7524 74bd 3773 343d
000002b0: c599 b23b d99f 933d 1c73 debd c011 44be
000002c0: 65ea 633d a5b3 8bbe 25ec 2f3e 81d4 0d3e
000002d0: e0ea 7fbe 9df0 e6bd a4d8 0cbe 8583 d4be
000002e0: ee8c ea3d 07b2 563d 6bb3 ab3d 5d43 e9bd
000002f0: 6c93 813d bc81 25bd 7e75 9d3d b742 cf3d
00000300: 9215 ed3d 5c44 573c d5a1 1b3e c8e5 3cbd
00000310: 120a c63d e7dd 30be a4ad a03d 6f6b 043d
00000320: 28af 8d3e b4ec e1bd e012 33be 0ce6 a3bc
00000330: 0283 54bd b5fc 36be 7208 813d d5c2 1f3e
00000340: 2538 9bbb 7fcc d33c 36a3 713e bae3 923d
00000350: ccbb 603c c5f1 043d 5f51 c3bd c937 1e3c
00000360: 0d0a fcbd 8d7a 193d 2055 2ebf 241e 33be
00000370: f8ef c2be fc97 f53d 51ed 053e e3c7 093c
00000380: 2324 0bbe 0bd6 8abd 23a1 c4be 340c 1c3e
00000390: 88dd 32bd 3410 893e 0881 ccbd 9d81 48be
000003a0: c24c 983d 5d2c 5ebd 4751 c0bd 98e5 5ebe
000003b0: 5a17 e83c e9d7 a13e 4b92 54bd 509e 26be
000003c0: 8d3e b6bd e9af a93d 0000 4a3e 89ef 1a3e
000003d0: 973e e9bd ad1a 9ebe 34c3 763c 6c50 64bd
000003e0: 1d70 8dbe 76f5 cfbd dc56 c0bd 40cf 7a3e
000003f0: 1448 09bc 1972 ea3d 26bc 39be e3de 63be
